{
  "nodes": [
    {
      "op": "null",
      "name": "hgfpn_stage1_add_alpha",
      "attrs": {
        "__init__": "[\"myconstant\", {\"value\": [[1]]}]",
        "__lr_mult__": "1",
        "__shape__": "(1, 1)"
      },
      "inputs": []
    },
    {
      "op": "null",
      "name": "data",
      "inputs": []
    },
    {
      "op": "null",
      "name": "bn_data_gamma",
      "attrs": {
        "__lr_mult__": "0.25",
        "eps": "2e-05",
        "fix_gamma": "True",
        "momentum": "0.99",
        "use_global_stats": "True"
      },
      "inputs": []
    },
    {
      "op": "null",
      "name": "bn_data_beta",
      "attrs": {
        "__lr_mult__": "0.25",
        "eps": "2e-05",
        "fix_gamma": "True",
        "momentum": "0.99",
        "use_global_stats": "True"
      },
      "inputs": []
    },
    {
      "op": "null",
      "name": "bn_data_moving_mean",
      "attrs": {
        "__init__": "[\"zero\", {}]",
        "__lr_mult__": "0.25",
        "eps": "2e-05",
        "fix_gamma": "True",
        "momentum": "0.99",
        "use_global_stats": "True"
      },
      "inputs": []
    },
    {
      "op": "null",
      "name": "bn_data_moving_var",
      "attrs": {
        "__init__": "[\"one\", {}]",
        "__lr_mult__": "0.25",
        "eps": "2e-05",
        "fix_gamma": "True",
        "momentum": "0.99",
        "use_global_stats": "True"
      },
      "inputs": []
    },
    {
      "op": "BatchNorm",
      "name": "bn_data",
      "attrs": {
        "__lr_mult__": "0.25",
        "eps": "2e-05",
        "fix_gamma": "True",
        "momentum": "0.99",
        "use_global_stats": "True"
      },
      "inputs": [[1, 0, 0], [2, 0, 0], [3, 0, 0], [4, 0, 1], [5, 0, 1]]
    },
    {
      "op": "null",
      "name": "conv0_weight",
      "attrs": {
        "__lr_mult__": "0.25",
        "kernel": "(7, 7)",
        "no_bias": "True",
        "num_filter": "64",
        "pad": "(3, 3)",
        "stride": "(2, 2)"
      },
      "inputs": []
    },
    {
      "op": "Convolution",
      "name": "conv0",
      "attrs": {
        "__lr_mult__": "0.25",
        "kernel": "(7, 7)",
        "no_bias": "True",
        "num_filter": "64",
        "pad": "(3, 3)",
        "stride": "(2, 2)"
      },
      "inputs": [[6, 0, 0], [7, 0, 0]]
    },
    {
      "op": "null",
      "name": "bn0_gamma",
      "attrs": {
        "__lr_mult__": "0.25",
        "eps": "2e-05",
        "fix_gamma": "False",
        "momentum": "0.99",
        "use_global_stats": "True"
      },
      "inputs": []
    },
    {
      "op": "null",
      "name": "bn0_beta",
      "attrs": {
        "__lr_mult__": "0.25",
        "eps": "2e-05",
        "fix_gamma": "False",
        "momentum": "0.99",
        "use_global_stats": "True"
      },
      "inputs": []
    },
    {
      "op": "null",
      "name": "bn0_moving_mean",
      "attrs": {
        "__init__": "[\"zero\", {}]",
        "__lr_mult__": "0.25",
        "eps": "2e-05",
        "fix_gamma": "False",
        "momentum": "0.99",
        "use_global_stats": "True"
      },
      "inputs": []
    },
    {
      "op": "null",
      "name": "bn0_moving_var",
      "attrs": {
        "__init__": "[\"one\", {}]",
        "__lr_mult__": "0.25",
        "eps": "2e-05",
        "fix_gamma": "False",
        "momentum": "0.99",
        "use_global_stats": "True"
      },
      "inputs": []
    },
    {
      "op": "BatchNorm",
      "name": "bn0",
      "attrs": {
        "__lr_mult__": "0.25",
        "eps": "2e-05",
        "fix_gamma": "False",
        "momentum": "0.99",
        "use_global_stats": "True"
      },
      "inputs": [[8, 0, 0], [9, 0, 0], [10, 0, 0], [11, 0, 1], [12, 0, 1]]
    },
    {
      "op": "Activation",
      "name": "relu0",
      "attrs": {
        "__lr_mult__": "0.25",
        "act_type": "relu"
      },
      "inputs": [[13, 0, 0]]
    },
    {
      "op": "Pooling",
      "name": "pooling0",
      "attrs": {
        "__lr_mult__": "0.25",
        "kernel": "(3, 3)",
        "pad": "(1, 1)",
        "pool_type": "max",
        "stride": "(2, 2)"
      },
      "inputs": [[14, 0, 0]]
    },
    {
      "op": "null",
      "name": "stage1_unit1_bn1_gamma",
      "attrs": {
        "__lr_mult__": "0.25",
        "eps": "2e-05",
        "fix_gamma": "False",
        "momentum": "0.9",
        "use_global_stats": "True"
      },
      "inputs": []
    },
    {
      "op": "null",
      "name": "stage1_unit1_bn1_beta",
      "attrs": {
        "__lr_mult__": "0.25",
        "eps": "2e-05",
        "fix_gamma": "False",
        "momentum": "0.9",
        "use_global_stats": "True"
      },
      "inputs": []
    },
    {
      "op": "null",
      "name": "stage1_unit1_bn1_moving_mean",
      "attrs": {
        "__init__": "[\"zero\", {}]",
        "__lr_mult__": "0.25",
        "eps": "2e-05",
        "fix_gamma": "False",
        "momentum": "0.9",
        "use_global_stats": "True"
      },
      "inputs": []
    },
    {
      "op": "null",
      "name": "stage1_unit1_bn1_moving_var",
      "attrs": {
        "__init__": "[\"one\", {}]",
        "__lr_mult__": "0.25",
        "eps": "2e-05",
        "fix_gamma": "False",
        "momentum": "0.9",
        "use_global_stats": "True"
      },
      "inputs": []
    },
    {
      "op": "BatchNorm",
      "name": "stage1_unit1_bn1",
      "attrs": {
        "__lr_mult__": "0.25",
        "eps": "2e-05",
        "fix_gamma": "False",
        "momentum": "0.9",
        "use_global_stats": "True"
      },
      "inputs": [[15, 0, 0], [16, 0, 0], [17, 0, 0], [18, 0, 1], [19, 0, 1]]
    },
    {
      "op": "Activation",
      "name": "stage1_unit1_relu1",
      "attrs": {
        "__lr_mult__": "0.25",
        "act_type": "relu"
      },
      "inputs": [[20, 0, 0]]
    },
    {
      "op": "null",
      "name": "stage1_unit1_conv1_weight",
      "attrs": {
        "__lr_mult__": "0.25",
        "kernel": "(1, 1)",
        "no_bias": "True",
        "num_filter": "64",
        "pad": "(0, 0)",
        "stride": "(1, 1)",
        "workspace": "512"
      },
      "inputs": []
    },
    {
      "op": "Convolution",
      "name": "stage1_unit1_conv1",
      "attrs": {
        "__lr_mult__": "0.25",
        "kernel": "(1, 1)",
        "no_bias": "True",
        "num_filter": "64",
        "pad": "(0, 0)",
        "stride": "(1, 1)",
        "workspace": "512"
      },
      "inputs": [[21, 0, 0], [22, 0, 0]]
    },
    {
      "op": "null",
      "name": "stage1_unit1_bn2_gamma",
      "attrs": {
        "__lr_mult__": "0.25",
        "eps": "2e-05",
        "fix_gamma": "False",
        "momentum": "0.9",
        "use_global_stats": "True"
      },
      "inputs": []
    },
    {
      "op": "null",
      "name": "stage1_unit1_bn2_beta",
      "attrs": {
        "__lr_mult__": "0.25",
        "eps": "2e-05",
        "fix_gamma": "False",
        "momentum": "0.9",
        "use_global_stats": "True"
      },
      "inputs": []
    },
    {
      "op": "null",
      "name": "stage1_unit1_bn2_moving_mean",
      "attrs": {
        "__init__": "[\"zero\", {}]",
        "__lr_mult__": "0.25",
        "eps": "2e-05",
        "fix_gamma": "False",
        "momentum": "0.9",
        "use_global_stats": "True"
      },
      "inputs": []
    },
    {
      "op": "null",
      "name": "stage1_unit1_bn2_moving_var",
      "attrs": {
        "__init__": "[\"one\", {}]",
        "__lr_mult__": "0.25",
        "eps": "2e-05",
        "fix_gamma": "False",
        "momentum": "0.9",
        "use_global_stats": "True"
      },
      "inputs": []
    },
    {
      "op": "BatchNorm",
      "name": "stage1_unit1_bn2",
      "attrs": {
        "__lr_mult__": "0.25",
        "eps": "2e-05",
        "fix_gamma": "False",
        "momentum": "0.9",
        "use_global_stats": "True"
      },
      "inputs": [[23, 0, 0], [24, 0, 0], [25, 0, 0], [26, 0, 1], [27, 0, 1]]
    },
    {
      "op": "Activation",
      "name": "stage1_unit1_relu2",
      "attrs": {
        "__lr_mult__": "0.25",
        "act_type": "relu"
      },
      "inputs": [[28, 0, 0]]
    },
    {
      "op": "null",
      "name": "stage1_unit1_conv2_weight",
      "attrs": {
        "__lr_mult__": "0.25",
        "kernel": "(3, 3)",
        "no_bias": "True",
        "num_filter": "64",
        "pad": "(1, 1)",
        "stride": "(1, 1)",
        "workspace": "512"
      },
      "inputs": []
    },
    {
      "op": "Convolution",
      "name": "stage1_unit1_conv2",
      "attrs": {
        "__lr_mult__": "0.25",
        "kernel": "(3, 3)",
        "no_bias": "True",
        "num_filter": "64",
        "pad": "(1, 1)",
        "stride": "(1, 1)",
        "workspace": "512"
      },
      "inputs": [[29, 0, 0], [30, 0, 0]]
    },
    {
      "op": "null",
      "name": "stage1_unit1_bn3_gamma",
      "attrs": {
        "__lr_mult__": "0.25",
        "eps": "2e-05",
        "fix_gamma": "False",
        "momentum": "0.9",
        "use_global_stats": "True"
      },
      "inputs": []
    },
    {
      "op": "null",
      "name": "stage1_unit1_bn3_beta",
      "attrs": {
        "__lr_mult__": "0.25",
        "eps": "2e-05",
        "fix_gamma": "False",
        "momentum": "0.9",
        "use_global_stats": "True"
      },
      "inputs": []
    },
    {
      "op": "null",
      "name": "stage1_unit1_bn3_moving_mean",
      "attrs": {
        "__init__": "[\"zero\", {}]",
        "__lr_mult__": "0.25",
        "eps": "2e-05",
        "fix_gamma": "False",
        "momentum": "0.9",
        "use_global_stats": "True"
      },
      "inputs": []
    },
    {
      "op": "null",
      "name": "stage1_unit1_bn3_moving_var",
      "attrs": {
        "__init__": "[\"one\", {}]",
        "__lr_mult__": "0.25",
        "eps": "2e-05",
        "fix_gamma": "False",
        "momentum": "0.9",
        "use_global_stats": "True"
      },
      "inputs": []
    },
    {
      "op": "BatchNorm",
      "name": "stage1_unit1_bn3",
      "attrs": {
        "__lr_mult__": "0.25",
        "eps": "2e-05",
        "fix_gamma": "False",
        "momentum": "0.9",
        "use_global_stats": "True"
      },
      "inputs": [[31, 0, 0], [32, 0, 0], [33, 0, 0], [34, 0, 1], [35, 0, 1]]
    },
    {
      "op": "Activation",
      "name": "stage1_unit1_relu3",
      "attrs": {
        "__lr_mult__": "0.25",
        "act_type": "relu"
      },
      "inputs": [[36, 0, 0]]
    },
    {
      "op": "null",
      "name": "stage1_unit1_conv3_weight",
      "attrs": {
        "__lr_mult__": "0.25",
        "kernel": "(1, 1)",
        "no_bias": "True",
        "num_filter": "256",
        "pad": "(0, 0)",
        "stride": "(1, 1)",
        "workspace": "512"
      },
      "inputs": []
    },
    {
      "op": "Convolution",
      "name": "stage1_unit1_conv3",
      "attrs": {
        "__lr_mult__": "0.25",
        "kernel": "(1, 1)",
        "no_bias": "True",
        "num_filter": "256",
        "pad": "(0, 0)",
        "stride": "(1, 1)",
        "workspace": "512"
      },
      "inputs": [[37, 0, 0], [38, 0, 0]]
    },
    {
      "op": "null",
      "name": "stage1_unit1_sc_weight",
      "attrs": {
        "__lr_mult__": "0.25",
        "kernel": "(1, 1)",
        "no_bias": "True",
        "num_filter": "256",
        "stride": "(1, 1)",
        "workspace": "512"
      },
      "inputs": []
    },
    {
      "op": "Convolution",
      "name": "stage1_unit1_sc",
      "attrs": {
        "__lr_mult__": "0.25",
        "kernel": "(1, 1)",
        "no_bias": "True",
        "num_filter": "256",
        "stride": "(1, 1)",
        "workspace": "512"
      },
      "inputs": [[21, 0, 0], [40, 0, 0]]
    },
    {
      "op": "elemwise_add",
      "name": "_plus0",
      "attrs": {"__lr_mult__": "0.25"},
      "inputs": [[39, 0, 0], [41, 0, 0]]
    },
    {
      "op": "null",
      "name": "stage1_unit2_bn1_gamma",
      "attrs": {
        "__lr_mult__": "0.25",
        "eps": "2e-05",
        "fix_gamma": "False",
        "momentum": "0.9",
        "use_global_stats": "True"
      },
      "inputs": []
    },
    {
      "op": "null",
      "name": "stage1_unit2_bn1_beta",
      "attrs": {
        "__lr_mult__": "0.25",
        "eps": "2e-05",
        "fix_gamma": "False",
        "momentum": "0.9",
        "use_global_stats": "True"
      },
      "inputs": []
    },
    {
      "op": "null",
      "name": "stage1_unit2_bn1_moving_mean",
      "attrs": {
        "__init__": "[\"zero\", {}]",
        "__lr_mult__": "0.25",
        "eps": "2e-05",
        "fix_gamma": "False",
        "momentum": "0.9",
        "use_global_stats": "True"
      },
      "inputs": []
    },
    {
      "op": "null",
      "name": "stage1_unit2_bn1_moving_var",
      "attrs": {
        "__init__": "[\"one\", {}]",
        "__lr_mult__": "0.25",
        "eps": "2e-05",
        "fix_gamma": "False",
        "momentum": "0.9",
        "use_global_stats": "True"
      },
      "inputs": []
    },
    {
      "op": "BatchNorm",
      "name": "stage1_unit2_bn1",
      "attrs": {
        "__lr_mult__": "0.25",
        "eps": "2e-05",
        "fix_gamma": "False",
        "momentum": "0.9",
        "use_global_stats": "True"
      },
      "inputs": [[42, 0, 0], [43, 0, 0], [44, 0, 0], [45, 0, 1], [46, 0, 1]]
    },
    {
      "op": "Activation",
      "name": "stage1_unit2_relu1",
      "attrs": {
        "__lr_mult__": "0.25",
        "act_type": "relu"
      },
      "inputs": [[47, 0, 0]]
    },
    {
      "op": "null",
      "name": "stage1_unit2_conv1_weight",
      "attrs": {
        "__lr_mult__": "0.25",
        "kernel": "(1, 1)",
        "no_bias": "True",
        "num_filter": "64",
        "pad": "(0, 0)",
        "stride": "(1, 1)",
        "workspace": "512"
      },
      "inputs": []
    },
    {
      "op": "Convolution",
      "name": "stage1_unit2_conv1",
      "attrs": {
        "__lr_mult__": "0.25",
        "kernel": "(1, 1)",
        "no_bias": "True",
        "num_filter": "64",
        "pad": "(0, 0)",
        "stride": "(1, 1)",
        "workspace": "512"
      },
      "inputs": [[48, 0, 0], [49, 0, 0]]
    },
    {
      "op": "null",
      "name": "stage1_unit2_bn2_gamma",
      "attrs": {
        "__lr_mult__": "0.25",
        "eps": "2e-05",
        "fix_gamma": "False",
        "momentum": "0.9",
        "use_global_stats": "True"
      },
      "inputs": []
    },
    {
      "op": "null",
      "name": "stage1_unit2_bn2_beta",
      "attrs": {
        "__lr_mult__": "0.25",
        "eps": "2e-05",
        "fix_gamma": "False",
        "momentum": "0.9",
        "use_global_stats": "True"
      },
      "inputs": []
    },
    {
      "op": "null",
      "name": "stage1_unit2_bn2_moving_mean",
      "attrs": {
        "__init__": "[\"zero\", {}]",
        "__lr_mult__": "0.25",
        "eps": "2e-05",
        "fix_gamma": "False",
        "momentum": "0.9",
        "use_global_stats": "True"
      },
      "inputs": []
    },
    {
      "op": "null",
      "name": "stage1_unit2_bn2_moving_var",
      "attrs": {
        "__init__": "[\"one\", {}]",
        "__lr_mult__": "0.25",
        "eps": "2e-05",
        "fix_gamma": "False",
        "momentum": "0.9",
        "use_global_stats": "True"
      },
      "inputs": []
    },
    {
      "op": "BatchNorm",
      "name": "stage1_unit2_bn2",
      "attrs": {
        "__lr_mult__": "0.25",
        "eps": "2e-05",
        "fix_gamma": "False",
        "momentum": "0.9",
        "use_global_stats": "True"
      },
      "inputs": [[50, 0, 0], [51, 0, 0], [52, 0, 0], [53, 0, 1], [54, 0, 1]]
    },
    {
      "op": "Activation",
      "name": "stage1_unit2_relu2",
      "attrs": {
        "__lr_mult__": "0.25",
        "act_type": "relu"
      },
      "inputs": [[55, 0, 0]]
    },
    {
      "op": "null",
      "name": "stage1_unit2_conv2_weight",
      "attrs": {
        "__lr_mult__": "0.25",
        "kernel": "(3, 3)",
        "no_bias": "True",
        "num_filter": "64",
        "pad": "(1, 1)",
        "stride": "(1, 1)",
        "workspace": "512"
      },
      "inputs": []
    },
    {
      "op": "Convolution",
      "name": "stage1_unit2_conv2",
      "attrs": {
        "__lr_mult__": "0.25",
        "kernel": "(3, 3)",
        "no_bias": "True",
        "num_filter": "64",
        "pad": "(1, 1)",
        "stride": "(1, 1)",
        "workspace": "512"
      },
      "inputs": [[56, 0, 0], [57, 0, 0]]
    },
    {
      "op": "null",
      "name": "stage1_unit2_bn3_gamma",
      "attrs": {
        "__lr_mult__": "0.25",
        "eps": "2e-05",
        "fix_gamma": "False",
        "momentum": "0.9",
        "use_global_stats": "True"
      },
      "inputs": []
    },
    {
      "op": "null",
      "name": "stage1_unit2_bn3_beta",
      "attrs": {
        "__lr_mult__": "0.25",
        "eps": "2e-05",
        "fix_gamma": "False",
        "momentum": "0.9",
        "use_global_stats": "True"
      },
      "inputs": []
    },
    {
      "op": "null",
      "name": "stage1_unit2_bn3_moving_mean",
      "attrs": {
        "__init__": "[\"zero\", {}]",
        "__lr_mult__": "0.25",
        "eps": "2e-05",
        "fix_gamma": "False",
        "momentum": "0.9",
        "use_global_stats": "True"
      },
      "inputs": []
    },
    {
      "op": "null",
      "name": "stage1_unit2_bn3_moving_var",
      "attrs": {
        "__init__": "[\"one\", {}]",
        "__lr_mult__": "0.25",
        "eps": "2e-05",
        "fix_gamma": "False",
        "momentum": "0.9",
        "use_global_stats": "True"
      },
      "inputs": []
    },
    {
      "op": "BatchNorm",
      "name": "stage1_unit2_bn3",
      "attrs": {
        "__lr_mult__": "0.25",
        "eps": "2e-05",
        "fix_gamma": "False",
        "momentum": "0.9",
        "use_global_stats": "True"
      },
      "inputs": [[58, 0, 0], [59, 0, 0], [60, 0, 0], [61, 0, 1], [62, 0, 1]]
    },
    {
      "op": "Activation",
      "name": "stage1_unit2_relu3",
      "attrs": {
        "__lr_mult__": "0.25",
        "act_type": "relu"
      },
      "inputs": [[63, 0, 0]]
    },
    {
      "op": "null",
      "name": "stage1_unit2_conv3_weight",
      "attrs": {
        "__lr_mult__": "0.25",
        "kernel": "(1, 1)",
        "no_bias": "True",
        "num_filter": "256",
        "pad": "(0, 0)",
        "stride": "(1, 1)",
        "workspace": "512"
      },
      "inputs": []
    },
    {
      "op": "Convolution",
      "name": "stage1_unit2_conv3",
      "attrs": {
        "__lr_mult__": "0.25",
        "kernel": "(1, 1)",
        "no_bias": "True",
        "num_filter": "256",
        "pad": "(0, 0)",
        "stride": "(1, 1)",
        "workspace": "512"
      },
      "inputs": [[64, 0, 0], [65, 0, 0]]
    },
    {
      "op": "elemwise_add",
      "name": "_plus1",
      "attrs": {"__lr_mult__": "0.25"},
      "inputs": [[66, 0, 0], [42, 0, 0]]
    },
    {
      "op": "null",
      "name": "stage1_unit3_bn1_gamma",
      "attrs": {
        "__lr_mult__": "0.25",
        "eps": "2e-05",
        "fix_gamma": "False",
        "momentum": "0.9",
        "use_global_stats": "True"
      },
      "inputs": []
    },
    {
      "op": "null",
      "name": "stage1_unit3_bn1_beta",
      "attrs": {
        "__lr_mult__": "0.25",
        "eps": "2e-05",
        "fix_gamma": "False",
        "momentum": "0.9",
        "use_global_stats": "True"
      },
      "inputs": []
    },
    {
      "op": "null",
      "name": "stage1_unit3_bn1_moving_mean",
      "attrs": {
        "__init__": "[\"zero\", {}]",
        "__lr_mult__": "0.25",
        "eps": "2e-05",
        "fix_gamma": "False",
        "momentum": "0.9",
        "use_global_stats": "True"
      },
      "inputs": []
    },
    {
      "op": "null",
      "name": "stage1_unit3_bn1_moving_var",
      "attrs": {
        "__init__": "[\"one\", {}]",
        "__lr_mult__": "0.25",
        "eps": "2e-05",
        "fix_gamma": "False",
        "momentum": "0.9",
        "use_global_stats": "True"
      },
      "inputs": []
    },
    {
      "op": "BatchNorm",
      "name": "stage1_unit3_bn1",
      "attrs": {
        "__lr_mult__": "0.25",
        "eps": "2e-05",
        "fix_gamma": "False",
        "momentum": "0.9",
        "use_global_stats": "True"
      },
      "inputs": [[67, 0, 0], [68, 0, 0], [69, 0, 0], [70, 0, 1], [71, 0, 1]]
    },
    {
      "op": "Activation",
      "name": "stage1_unit3_relu1",
      "attrs": {
        "__lr_mult__": "0.25",
        "act_type": "relu"
      },
      "inputs": [[72, 0, 0]]
    },
    {
      "op": "null",
      "name": "stage1_unit3_conv1_weight",
      "attrs": {
        "__lr_mult__": "0.25",
        "kernel": "(1, 1)",
        "no_bias": "True",
        "num_filter": "64",
        "pad": "(0, 0)",
        "stride": "(1, 1)",
        "workspace": "512"
      },
      "inputs": []
    },
    {
      "op": "Convolution",
      "name": "stage1_unit3_conv1",
      "attrs": {
        "__lr_mult__": "0.25",
        "kernel": "(1, 1)",
        "no_bias": "True",
        "num_filter": "64",
        "pad": "(0, 0)",
        "stride": "(1, 1)",
        "workspace": "512"
      },
      "inputs": [[73, 0, 0], [74, 0, 0]]
    },
    {
      "op": "null",
      "name": "stage1_unit3_bn2_gamma",
      "attrs": {
        "__lr_mult__": "0.25",
        "eps": "2e-05",
        "fix_gamma": "False",
        "momentum": "0.9",
        "use_global_stats": "True"
      },
      "inputs": []
    },
    {
      "op": "null",
      "name": "stage1_unit3_bn2_beta",
      "attrs": {
        "__lr_mult__": "0.25",
        "eps": "2e-05",
        "fix_gamma": "False",
        "momentum": "0.9",
        "use_global_stats": "True"
      },
      "inputs": []
    },
    {
      "op": "null",
      "name": "stage1_unit3_bn2_moving_mean",
      "attrs": {
        "__init__": "[\"zero\", {}]",
        "__lr_mult__": "0.25",
        "eps": "2e-05",
        "fix_gamma": "False",
        "momentum": "0.9",
        "use_global_stats": "True"
      },
      "inputs": []
    },
    {
      "op": "null",
      "name": "stage1_unit3_bn2_moving_var",
      "attrs": {
        "__init__": "[\"one\", {}]",
        "__lr_mult__": "0.25",
        "eps": "2e-05",
        "fix_gamma": "False",
        "momentum": "0.9",
        "use_global_stats": "True"
      },
      "inputs": []
    },
    {
      "op": "BatchNorm",
      "name": "stage1_unit3_bn2",
      "attrs": {
        "__lr_mult__": "0.25",
        "eps": "2e-05",
        "fix_gamma": "False",
        "momentum": "0.9",
        "use_global_stats": "True"
      },
      "inputs": [[75, 0, 0], [76, 0, 0], [77, 0, 0], [78, 0, 1], [79, 0, 1]]
    },
    {
      "op": "Activation",
      "name": "stage1_unit3_relu2",
      "attrs": {
        "__lr_mult__": "0.25",
        "act_type": "relu"
      },
      "inputs": [[80, 0, 0]]
    },
    {
      "op": "null",
      "name": "stage1_unit3_conv2_weight",
      "attrs": {
        "__lr_mult__": "0.25",
        "kernel": "(3, 3)",
        "no_bias": "True",
        "num_filter": "64",
        "pad": "(1, 1)",
        "stride": "(1, 1)",
        "workspace": "512"
      },
      "inputs": []
    },
    {
      "op": "Convolution",
      "name": "stage1_unit3_conv2",
      "attrs": {
        "__lr_mult__": "0.25",
        "kernel": "(3, 3)",
        "no_bias": "True",
        "num_filter": "64",
        "pad": "(1, 1)",
        "stride": "(1, 1)",
        "workspace": "512"
      },
      "inputs": [[81, 0, 0], [82, 0, 0]]
    },
    {
      "op": "null",
      "name": "stage1_unit3_bn3_gamma",
      "attrs": {
        "__lr_mult__": "0.25",
        "eps": "2e-05",
        "fix_gamma": "False",
        "momentum": "0.9",
        "use_global_stats": "True"
      },
      "inputs": []
    },
    {
      "op": "null",
      "name": "stage1_unit3_bn3_beta",
      "attrs": {
        "__lr_mult__": "0.25",
        "eps": "2e-05",
        "fix_gamma": "False",
        "momentum": "0.9",
        "use_global_stats": "True"
      },
      "inputs": []
    },
    {
      "op": "null",
      "name": "stage1_unit3_bn3_moving_mean",
      "attrs": {
        "__init__": "[\"zero\", {}]",
        "__lr_mult__": "0.25",
        "eps": "2e-05",
        "fix_gamma": "False",
        "momentum": "0.9",
        "use_global_stats": "True"
      },
      "inputs": []
    },
    {
      "op": "null",
      "name": "stage1_unit3_bn3_moving_var",
      "attrs": {
        "__init__": "[\"one\", {}]",
        "__lr_mult__": "0.25",
        "eps": "2e-05",
        "fix_gamma": "False",
        "momentum": "0.9",
        "use_global_stats": "True"
      },
      "inputs": []
    },
    {
      "op": "BatchNorm",
      "name": "stage1_unit3_bn3",
      "attrs": {
        "__lr_mult__": "0.25",
        "eps": "2e-05",
        "fix_gamma": "False",
        "momentum": "0.9",
        "use_global_stats": "True"
      },
      "inputs": [[83, 0, 0], [84, 0, 0], [85, 0, 0], [86, 0, 1], [87, 0, 1]]
    },
    {
      "op": "Activation",
      "name": "stage1_unit3_relu3",
      "attrs": {
        "__lr_mult__": "0.25",
        "act_type": "relu"
      },
      "inputs": [[88, 0, 0]]
    },
    {
      "op": "null",
      "name": "stage1_unit3_conv3_weight",
      "attrs": {
        "__lr_mult__": "0.25",
        "kernel": "(1, 1)",
        "no_bias": "True",
        "num_filter": "256",
        "pad": "(0, 0)",
        "stride": "(1, 1)",
        "workspace": "512"
      },
      "inputs": []
    },
    {
      "op": "Convolution",
      "name": "stage1_unit3_conv3",
      "attrs": {
        "__lr_mult__": "0.25",
        "kernel": "(1, 1)",
        "no_bias": "True",
        "num_filter": "256",
        "pad": "(0, 0)",
        "stride": "(1, 1)",
        "workspace": "512"
      },
      "inputs": [[89, 0, 0], [90, 0, 0]]
    },
    {
      "op": "elemwise_add",
      "name": "_plus2",
      "attrs": {"__lr_mult__": "0.25"},
      "inputs": [[91, 0, 0], [67, 0, 0]]
    },
    {
      "op": "null",
      "name": "stage2_unit1_bn1_gamma",
      "attrs": {
        "__lr_mult__": "0.25",
        "eps": "2e-05",
        "fix_gamma": "False",
        "momentum": "0.9",
        "use_global_stats": "True"
      },
      "inputs": []
    },
    {
      "op": "null",
      "name": "stage2_unit1_bn1_beta",
      "attrs": {
        "__lr_mult__": "0.25",
        "eps": "2e-05",
        "fix_gamma": "False",
        "momentum": "0.9",
        "use_global_stats": "True"
      },
      "inputs": []
    },
    {
      "op": "null",
      "name": "stage2_unit1_bn1_moving_mean",
      "attrs": {
        "__init__": "[\"zero\", {}]",
        "__lr_mult__": "0.25",
        "eps": "2e-05",
        "fix_gamma": "False",
        "momentum": "0.9",
        "use_global_stats": "True"
      },
      "inputs": []
    },
    {
      "op": "null",
      "name": "stage2_unit1_bn1_moving_var",
      "attrs": {
        "__init__": "[\"one\", {}]",
        "__lr_mult__": "0.25",
        "eps": "2e-05",
        "fix_gamma": "False",
        "momentum": "0.9",
        "use_global_stats": "True"
      },
      "inputs": []
    },
    {
      "op": "BatchNorm",
      "name": "stage2_unit1_bn1",
      "attrs": {
        "__lr_mult__": "0.25",
        "eps": "2e-05",
        "fix_gamma": "False",
        "momentum": "0.9",
        "use_global_stats": "True"
      },
      "inputs": [[92, 0, 0], [93, 0, 0], [94, 0, 0], [95, 0, 1], [96, 0, 1]]
    },
    {
      "op": "Activation",
      "name": "stage2_unit1_relu1",
      "attrs": {
        "__lr_mult__": "0.25",
        "act_type": "relu"
      },
      "inputs": [[97, 0, 0]]
    },
    {
      "op": "null",
      "name": "stage2_unit1_conv1_weight",
      "attrs": {
        "__lr_mult__": "0.25",
        "kernel": "(1, 1)",
        "no_bias": "True",
        "num_filter": "128",
        "pad": "(0, 0)",
        "stride": "(1, 1)",
        "workspace": "512"
      },
      "inputs": []
    },
    {
      "op": "Convolution",
      "name": "stage2_unit1_conv1",
      "attrs": {
        "__lr_mult__": "0.25",
        "kernel": "(1, 1)",
        "no_bias": "True",
        "num_filter": "128",
        "pad": "(0, 0)",
        "stride": "(1, 1)",
        "workspace": "512"
      },
      "inputs": [[98, 0, 0], [99, 0, 0]]
    },
    {
      "op": "null",
      "name": "stage2_unit1_bn2_gamma",
      "attrs": {
        "__lr_mult__": "0.25",
        "eps": "2e-05",
        "fix_gamma": "False",
        "momentum": "0.9",
        "use_global_stats": "True"
      },
      "inputs": []
    },
    {
      "op": "null",
      "name": "stage2_unit1_bn2_beta",
      "attrs": {
        "__lr_mult__": "0.25",
        "eps": "2e-05",
        "fix_gamma": "False",
        "momentum": "0.9",
        "use_global_stats": "True"
      },
      "inputs": []
    },
    {
      "op": "null",
      "name": "stage2_unit1_bn2_moving_mean",
      "attrs": {
        "__init__": "[\"zero\", {}]",
        "__lr_mult__": "0.25",
        "eps": "2e-05",
        "fix_gamma": "False",
        "momentum": "0.9",
        "use_global_stats": "True"
      },
      "inputs": []
    },
    {
      "op": "null",
      "name": "stage2_unit1_bn2_moving_var",
      "attrs": {
        "__init__": "[\"one\", {}]",
        "__lr_mult__": "0.25",
        "eps": "2e-05",
        "fix_gamma": "False",
        "momentum": "0.9",
        "use_global_stats": "True"
      },
      "inputs": []
    },
    {
      "op": "BatchNorm",
      "name": "stage2_unit1_bn2",
      "attrs": {
        "__lr_mult__": "0.25",
        "eps": "2e-05",
        "fix_gamma": "False",
        "momentum": "0.9",
        "use_global_stats": "True"
      },
      "inputs": [[100, 0, 0], [101, 0, 0], [102, 0, 0], [103, 0, 1], [104, 0, 1]]
    },
    {
      "op": "Activation",
      "name": "stage2_unit1_relu2",
      "attrs": {
        "__lr_mult__": "0.25",
        "act_type": "relu"
      },
      "inputs": [[105, 0, 0]]
    },
    {
      "op": "null",
      "name": "stage2_unit1_conv2_weight",
      "attrs": {
        "__lr_mult__": "0.25",
        "kernel": "(3, 3)",
        "no_bias": "True",
        "num_filter": "128",
        "pad": "(1, 1)",
        "stride": "(2, 2)",
        "workspace": "512"
      },
      "inputs": []
    },
    {
      "op": "Convolution",
      "name": "stage2_unit1_conv2",
      "attrs": {
        "__lr_mult__": "0.25",
        "kernel": "(3, 3)",
        "no_bias": "True",
        "num_filter": "128",
        "pad": "(1, 1)",
        "stride": "(2, 2)",
        "workspace": "512"
      },
      "inputs": [[106, 0, 0], [107, 0, 0]]
    },
    {
      "op": "null",
      "name": "stage2_unit1_bn3_gamma",
      "attrs": {
        "__lr_mult__": "0.25",
        "eps": "2e-05",
        "fix_gamma": "False",
        "momentum": "0.9",
        "use_global_stats": "True"
      },
      "inputs": []
    },
    {
      "op": "null",
      "name": "stage2_unit1_bn3_beta",
      "attrs": {
        "__lr_mult__": "0.25",
        "eps": "2e-05",
        "fix_gamma": "False",
        "momentum": "0.9",
        "use_global_stats": "True"
      },
      "inputs": []
    },
    {
      "op": "null",
      "name": "stage2_unit1_bn3_moving_mean",
      "attrs": {
        "__init__": "[\"zero\", {}]",
        "__lr_mult__": "0.25",
        "eps": "2e-05",
        "fix_gamma": "False",
        "momentum": "0.9",
        "use_global_stats": "True"
      },
      "inputs": []
    },
    {
      "op": "null",
      "name": "stage2_unit1_bn3_moving_var",
      "attrs": {
        "__init__": "[\"one\", {}]",
        "__lr_mult__": "0.25",
        "eps": "2e-05",
        "fix_gamma": "False",
        "momentum": "0.9",
        "use_global_stats": "True"
      },
      "inputs": []
    },
    {
      "op": "BatchNorm",
      "name": "stage2_unit1_bn3",
      "attrs": {
        "__lr_mult__": "0.25",
        "eps": "2e-05",
        "fix_gamma": "False",
        "momentum": "0.9",
        "use_global_stats": "True"
      },
      "inputs": [[108, 0, 0], [109, 0, 0], [110, 0, 0], [111, 0, 1], [112, 0, 1]]
    },
    {
      "op": "Activation",
      "name": "stage2_unit1_relu3",
      "attrs": {
        "__lr_mult__": "0.25",
        "act_type": "relu"
      },
      "inputs": [[113, 0, 0]]
    },
    {
      "op": "null",
      "name": "stage2_unit1_conv3_weight",
      "attrs": {
        "__lr_mult__": "0.25",
        "kernel": "(1, 1)",
        "no_bias": "True",
        "num_filter": "512",
        "pad": "(0, 0)",
        "stride": "(1, 1)",
        "workspace": "512"
      },
      "inputs": []
    },
    {
      "op": "Convolution",
      "name": "stage2_unit1_conv3",
      "attrs": {
        "__lr_mult__": "0.25",
        "kernel": "(1, 1)",
        "no_bias": "True",
        "num_filter": "512",
        "pad": "(0, 0)",
        "stride": "(1, 1)",
        "workspace": "512"
      },
      "inputs": [[114, 0, 0], [115, 0, 0]]
    },
    {
      "op": "null",
      "name": "stage2_unit1_sc_weight",
      "attrs": {
        "__lr_mult__": "0.25",
        "kernel": "(1, 1)",
        "no_bias": "True",
        "num_filter": "512",
        "stride": "(2, 2)",
        "workspace": "512"
      },
      "inputs": []
    },
    {
      "op": "Convolution",
      "name": "stage2_unit1_sc",
      "attrs": {
        "__lr_mult__": "0.25",
        "kernel": "(1, 1)",
        "no_bias": "True",
        "num_filter": "512",
        "stride": "(2, 2)",
        "workspace": "512"
      },
      "inputs": [[98, 0, 0], [117, 0, 0]]
    },
    {
      "op": "elemwise_add",
      "name": "_plus3",
      "attrs": {"__lr_mult__": "0.25"},
      "inputs": [[116, 0, 0], [118, 0, 0]]
    },
    {
      "op": "null",
      "name": "stage2_unit2_bn1_gamma",
      "attrs": {
        "__lr_mult__": "0.25",
        "eps": "2e-05",
        "fix_gamma": "False",
        "momentum": "0.9",
        "use_global_stats": "True"
      },
      "inputs": []
    },
    {
      "op": "null",
      "name": "stage2_unit2_bn1_beta",
      "attrs": {
        "__lr_mult__": "0.25",
        "eps": "2e-05",
        "fix_gamma": "False",
        "momentum": "0.9",
        "use_global_stats": "True"
      },
      "inputs": []
    },
    {
      "op": "null",
      "name": "stage2_unit2_bn1_moving_mean",
      "attrs": {
        "__init__": "[\"zero\", {}]",
        "__lr_mult__": "0.25",
        "eps": "2e-05",
        "fix_gamma": "False",
        "momentum": "0.9",
        "use_global_stats": "True"
      },
      "inputs": []
    },
    {
      "op": "null",
      "name": "stage2_unit2_bn1_moving_var",
      "attrs": {
        "__init__": "[\"one\", {}]",
        "__lr_mult__": "0.25",
        "eps": "2e-05",
        "fix_gamma": "False",
        "momentum": "0.9",
        "use_global_stats": "True"
      },
      "inputs": []
    },
    {
      "op": "BatchNorm",
      "name": "stage2_unit2_bn1",
      "attrs": {
        "__lr_mult__": "0.25",
        "eps": "2e-05",
        "fix_gamma": "False",
        "momentum": "0.9",
        "use_global_stats": "True"
      },
      "inputs": [[119, 0, 0], [120, 0, 0], [121, 0, 0], [122, 0, 1], [123, 0, 1]]
    },
    {
      "op": "Activation",
      "name": "stage2_unit2_relu1",
      "attrs": {
        "__lr_mult__": "0.25",
        "act_type": "relu"
      },
      "inputs": [[124, 0, 0]]
    },
    {
      "op": "null",
      "name": "stage2_unit2_conv1_weight",
      "attrs": {
        "__lr_mult__": "0.25",
        "kernel": "(1, 1)",
        "no_bias": "True",
        "num_filter": "128",
        "pad": "(0, 0)",
        "stride": "(1, 1)",
        "workspace": "512"
      },
      "inputs": []
    },
    {
      "op": "Convolution",
      "name": "stage2_unit2_conv1",
      "attrs": {
        "__lr_mult__": "0.25",
        "kernel": "(1, 1)",
        "no_bias": "True",
        "num_filter": "128",
        "pad": "(0, 0)",
        "stride": "(1, 1)",
        "workspace": "512"
      },
      "inputs": [[125, 0, 0], [126, 0, 0]]
    },
    {
      "op": "null",
      "name": "stage2_unit2_bn2_gamma",
      "attrs": {
        "__lr_mult__": "0.25",
        "eps": "2e-05",
        "fix_gamma": "False",
        "momentum": "0.9",
        "use_global_stats": "True"
      },
      "inputs": []
    },
    {
      "op": "null",
      "name": "stage2_unit2_bn2_beta",
      "attrs": {
        "__lr_mult__": "0.25",
        "eps": "2e-05",
        "fix_gamma": "False",
        "momentum": "0.9",
        "use_global_stats": "True"
      },
      "inputs": []
    },
    {
      "op": "null",
      "name": "stage2_unit2_bn2_moving_mean",
      "attrs": {
        "__init__": "[\"zero\", {}]",
        "__lr_mult__": "0.25",
        "eps": "2e-05",
        "fix_gamma": "False",
        "momentum": "0.9",
        "use_global_stats": "True"
      },
      "inputs": []
    },
    {
      "op": "null",
      "name": "stage2_unit2_bn2_moving_var",
      "attrs": {
        "__init__": "[\"one\", {}]",
        "__lr_mult__": "0.25",
        "eps": "2e-05",
        "fix_gamma": "False",
        "momentum": "0.9",
        "use_global_stats": "True"
      },
      "inputs": []
    },
    {
      "op": "BatchNorm",
      "name": "stage2_unit2_bn2",
      "attrs": {
        "__lr_mult__": "0.25",
        "eps": "2e-05",
        "fix_gamma": "False",
        "momentum": "0.9",
        "use_global_stats": "True"
      },
      "inputs": [[127, 0, 0], [128, 0, 0], [129, 0, 0], [130, 0, 1], [131, 0, 1]]
    },
    {
      "op": "Activation",
      "name": "stage2_unit2_relu2",
      "attrs": {
        "__lr_mult__": "0.25",
        "act_type": "relu"
      },
      "inputs": [[132, 0, 0]]
    },
    {
      "op": "null",
      "name": "stage2_unit2_conv2_weight",
      "attrs": {
        "__lr_mult__": "0.25",
        "kernel": "(3, 3)",
        "no_bias": "True",
        "num_filter": "128",
        "pad": "(1, 1)",
        "stride": "(1, 1)",
        "workspace": "512"
      },
      "inputs": []
    },
    {
      "op": "Convolution",
      "name": "stage2_unit2_conv2",
      "attrs": {
        "__lr_mult__": "0.25",
        "kernel": "(3, 3)",
        "no_bias": "True",
        "num_filter": "128",
        "pad": "(1, 1)",
        "stride": "(1, 1)",
        "workspace": "512"
      },
      "inputs": [[133, 0, 0], [134, 0, 0]]
    },
    {
      "op": "null",
      "name": "stage2_unit2_bn3_gamma",
      "attrs": {
        "__lr_mult__": "0.25",
        "eps": "2e-05",
        "fix_gamma": "False",
        "momentum": "0.9",
        "use_global_stats": "True"
      },
      "inputs": []
    },
    {
      "op": "null",
      "name": "stage2_unit2_bn3_beta",
      "attrs": {
        "__lr_mult__": "0.25",
        "eps": "2e-05",
        "fix_gamma": "False",
        "momentum": "0.9",
        "use_global_stats": "True"
      },
      "inputs": []
    },
    {
      "op": "null",
      "name": "stage2_unit2_bn3_moving_mean",
      "attrs": {
        "__init__": "[\"zero\", {}]",
        "__lr_mult__": "0.25",
        "eps": "2e-05",
        "fix_gamma": "False",
        "momentum": "0.9",
        "use_global_stats": "True"
      },
      "inputs": []
    },
    {
      "op": "null",
      "name": "stage2_unit2_bn3_moving_var",
      "attrs": {
        "__init__": "[\"one\", {}]",
        "__lr_mult__": "0.25",
        "eps": "2e-05",
        "fix_gamma": "False",
        "momentum": "0.9",
        "use_global_stats": "True"
      },
      "inputs": []
    },
    {
      "op": "BatchNorm",
      "name": "stage2_unit2_bn3",
      "attrs": {
        "__lr_mult__": "0.25",
        "eps": "2e-05",
        "fix_gamma": "False",
        "momentum": "0.9",
        "use_global_stats": "True"
      },
      "inputs": [[135, 0, 0], [136, 0, 0], [137, 0, 0], [138, 0, 1], [139, 0, 1]]
    },
    {
      "op": "Activation",
      "name": "stage2_unit2_relu3",
      "attrs": {
        "__lr_mult__": "0.25",
        "act_type": "relu"
      },
      "inputs": [[140, 0, 0]]
    },
    {
      "op": "null",
      "name": "stage2_unit2_conv3_weight",
      "attrs": {
        "__lr_mult__": "0.25",
        "kernel": "(1, 1)",
        "no_bias": "True",
        "num_filter": "512",
        "pad": "(0, 0)",
        "stride": "(1, 1)",
        "workspace": "512"
      },
      "inputs": []
    },
    {
      "op": "Convolution",
      "name": "stage2_unit2_conv3",
      "attrs": {
        "__lr_mult__": "0.25",
        "kernel": "(1, 1)",
        "no_bias": "True",
        "num_filter": "512",
        "pad": "(0, 0)",
        "stride": "(1, 1)",
        "workspace": "512"
      },
      "inputs": [[141, 0, 0], [142, 0, 0]]
    },
    {
      "op": "elemwise_add",
      "name": "_plus4",
      "attrs": {"__lr_mult__": "0.25"},
      "inputs": [[143, 0, 0], [119, 0, 0]]
    },
    {
      "op": "null",
      "name": "stage2_unit3_bn1_gamma",
      "attrs": {
        "__lr_mult__": "0.25",
        "eps": "2e-05",
        "fix_gamma": "False",
        "momentum": "0.9",
        "use_global_stats": "True"
      },
      "inputs": []
    },
    {
      "op": "null",
      "name": "stage2_unit3_bn1_beta",
      "attrs": {
        "__lr_mult__": "0.25",
        "eps": "2e-05",
        "fix_gamma": "False",
        "momentum": "0.9",
        "use_global_stats": "True"
      },
      "inputs": []
    },
    {
      "op": "null",
      "name": "stage2_unit3_bn1_moving_mean",
      "attrs": {
        "__init__": "[\"zero\", {}]",
        "__lr_mult__": "0.25",
        "eps": "2e-05",
        "fix_gamma": "False",
        "momentum": "0.9",
        "use_global_stats": "True"
      },
      "inputs": []
    },
    {
      "op": "null",
      "name": "stage2_unit3_bn1_moving_var",
      "attrs": {
        "__init__": "[\"one\", {}]",
        "__lr_mult__": "0.25",
        "eps": "2e-05",
        "fix_gamma": "False",
        "momentum": "0.9",
        "use_global_stats": "True"
      },
      "inputs": []
    },
    {
      "op": "BatchNorm",
      "name": "stage2_unit3_bn1",
      "attrs": {
        "__lr_mult__": "0.25",
        "eps": "2e-05",
        "fix_gamma": "False",
        "momentum": "0.9",
        "use_global_stats": "True"
      },
      "inputs": [[144, 0, 0], [145, 0, 0], [146, 0, 0], [147, 0, 1], [148, 0, 1]]
    },
    {
      "op": "Activation",
      "name": "stage2_unit3_relu1",
      "attrs": {
        "__lr_mult__": "0.25",
        "act_type": "relu"
      },
      "inputs": [[149, 0, 0]]
    },
    {
      "op": "null",
      "name": "stage2_unit3_conv1_weight",
      "attrs": {
        "__lr_mult__": "0.25",
        "kernel": "(1, 1)",
        "no_bias": "True",
        "num_filter": "128",
        "pad": "(0, 0)",
        "stride": "(1, 1)",
        "workspace": "512"
      },
      "inputs": []
    },
    {
      "op": "Convolution",
      "name": "stage2_unit3_conv1",
      "attrs": {
        "__lr_mult__": "0.25",
        "kernel": "(1, 1)",
        "no_bias": "True",
        "num_filter": "128",
        "pad": "(0, 0)",
        "stride": "(1, 1)",
        "workspace": "512"
      },
      "inputs": [[150, 0, 0], [151, 0, 0]]
    },
    {
      "op": "null",
      "name": "stage2_unit3_bn2_gamma",
      "attrs": {
        "__lr_mult__": "0.25",
        "eps": "2e-05",
        "fix_gamma": "False",
        "momentum": "0.9",
        "use_global_stats": "True"
      },
      "inputs": []
    },
    {
      "op": "null",
      "name": "stage2_unit3_bn2_beta",
      "attrs": {
        "__lr_mult__": "0.25",
        "eps": "2e-05",
        "fix_gamma": "False",
        "momentum": "0.9",
        "use_global_stats": "True"
      },
      "inputs": []
    },
    {
      "op": "null",
      "name": "stage2_unit3_bn2_moving_mean",
      "attrs": {
        "__init__": "[\"zero\", {}]",
        "__lr_mult__": "0.25",
        "eps": "2e-05",
        "fix_gamma": "False",
        "momentum": "0.9",
        "use_global_stats": "True"
      },
      "inputs": []
    },
    {
      "op": "null",
      "name": "stage2_unit3_bn2_moving_var",
      "attrs": {
        "__init__": "[\"one\", {}]",
        "__lr_mult__": "0.25",
        "eps": "2e-05",
        "fix_gamma": "False",
        "momentum": "0.9",
        "use_global_stats": "True"
      },
      "inputs": []
    },
    {
      "op": "BatchNorm",
      "name": "stage2_unit3_bn2",
      "attrs": {
        "__lr_mult__": "0.25",
        "eps": "2e-05",
        "fix_gamma": "False",
        "momentum": "0.9",
        "use_global_stats": "True"
      },
      "inputs": [[152, 0, 0], [153, 0, 0], [154, 0, 0], [155, 0, 1], [156, 0, 1]]
    },
    {
      "op": "Activation",
      "name": "stage2_unit3_relu2",
      "attrs": {
        "__lr_mult__": "0.25",
        "act_type": "relu"
      },
      "inputs": [[157, 0, 0]]
    },
    {
      "op": "null",
      "name": "stage2_unit3_conv2_weight",
      "attrs": {
        "__lr_mult__": "0.25",
        "kernel": "(3, 3)",
        "no_bias": "True",
        "num_filter": "128",
        "pad": "(1, 1)",
        "stride": "(1, 1)",
        "workspace": "512"
      },
      "inputs": []
    },
    {
      "op": "Convolution",
      "name": "stage2_unit3_conv2",
      "attrs": {
        "__lr_mult__": "0.25",
        "kernel": "(3, 3)",
        "no_bias": "True",
        "num_filter": "128",
        "pad": "(1, 1)",
        "stride": "(1, 1)",
        "workspace": "512"
      },
      "inputs": [[158, 0, 0], [159, 0, 0]]
    },
    {
      "op": "null",
      "name": "stage2_unit3_bn3_gamma",
      "attrs": {
        "__lr_mult__": "0.25",
        "eps": "2e-05",
        "fix_gamma": "False",
        "momentum": "0.9",
        "use_global_stats": "True"
      },
      "inputs": []
    },
    {
      "op": "null",
      "name": "stage2_unit3_bn3_beta",
      "attrs": {
        "__lr_mult__": "0.25",
        "eps": "2e-05",
        "fix_gamma": "False",
        "momentum": "0.9",
        "use_global_stats": "True"
      },
      "inputs": []
    },
    {
      "op": "null",
      "name": "stage2_unit3_bn3_moving_mean",
      "attrs": {
        "__init__": "[\"zero\", {}]",
        "__lr_mult__": "0.25",
        "eps": "2e-05",
        "fix_gamma": "False",
        "momentum": "0.9",
        "use_global_stats": "True"
      },
      "inputs": []
    },
    {
      "op": "null",
      "name": "stage2_unit3_bn3_moving_var",
      "attrs": {
        "__init__": "[\"one\", {}]",
        "__lr_mult__": "0.25",
        "eps": "2e-05",
        "fix_gamma": "False",
        "momentum": "0.9",
        "use_global_stats": "True"
      },
      "inputs": []
    },
    {
      "op": "BatchNorm",
      "name": "stage2_unit3_bn3",
      "attrs": {
        "__lr_mult__": "0.25",
        "eps": "2e-05",
        "fix_gamma": "False",
        "momentum": "0.9",
        "use_global_stats": "True"
      },
      "inputs": [[160, 0, 0], [161, 0, 0], [162, 0, 0], [163, 0, 1], [164, 0, 1]]
    },
    {
      "op": "Activation",
      "name": "stage2_unit3_relu3",
      "attrs": {
        "__lr_mult__": "0.25",
        "act_type": "relu"
      },
      "inputs": [[165, 0, 0]]
    },
    {
      "op": "null",
      "name": "stage2_unit3_conv3_weight",
      "attrs": {
        "__lr_mult__": "0.25",
        "kernel": "(1, 1)",
        "no_bias": "True",
        "num_filter": "512",
        "pad": "(0, 0)",
        "stride": "(1, 1)",
        "workspace": "512"
      },
      "inputs": []
    },
    {
      "op": "Convolution",
      "name": "stage2_unit3_conv3",
      "attrs": {
        "__lr_mult__": "0.25",
        "kernel": "(1, 1)",
        "no_bias": "True",
        "num_filter": "512",
        "pad": "(0, 0)",
        "stride": "(1, 1)",
        "workspace": "512"
      },
      "inputs": [[166, 0, 0], [167, 0, 0]]
    },
    {
      "op": "elemwise_add",
      "name": "_plus5",
      "attrs": {"__lr_mult__": "0.25"},
      "inputs": [[168, 0, 0], [144, 0, 0]]
    },
    {
      "op": "null",
      "name": "stage2_unit4_bn1_gamma",
      "attrs": {
        "__lr_mult__": "0.25",
        "eps": "2e-05",
        "fix_gamma": "False",
        "momentum": "0.9",
        "use_global_stats": "True"
      },
      "inputs": []
    },
    {
      "op": "null",
      "name": "stage2_unit4_bn1_beta",
      "attrs": {
        "__lr_mult__": "0.25",
        "eps": "2e-05",
        "fix_gamma": "False",
        "momentum": "0.9",
        "use_global_stats": "True"
      },
      "inputs": []
    },
    {
      "op": "null",
      "name": "stage2_unit4_bn1_moving_mean",
      "attrs": {
        "__init__": "[\"zero\", {}]",
        "__lr_mult__": "0.25",
        "eps": "2e-05",
        "fix_gamma": "False",
        "momentum": "0.9",
        "use_global_stats": "True"
      },
      "inputs": []
    },
    {
      "op": "null",
      "name": "stage2_unit4_bn1_moving_var",
      "attrs": {
        "__init__": "[\"one\", {}]",
        "__lr_mult__": "0.25",
        "eps": "2e-05",
        "fix_gamma": "False",
        "momentum": "0.9",
        "use_global_stats": "True"
      },
      "inputs": []
    },
    {
      "op": "BatchNorm",
      "name": "stage2_unit4_bn1",
      "attrs": {
        "__lr_mult__": "0.25",
        "eps": "2e-05",
        "fix_gamma": "False",
        "momentum": "0.9",
        "use_global_stats": "True"
      },
      "inputs": [[169, 0, 0], [170, 0, 0], [171, 0, 0], [172, 0, 1], [173, 0, 1]]
    },
    {
      "op": "Activation",
      "name": "stage2_unit4_relu1",
      "attrs": {
        "__lr_mult__": "0.25",
        "act_type": "relu"
      },
      "inputs": [[174, 0, 0]]
    },
    {
      "op": "null",
      "name": "stage2_unit4_conv1_weight",
      "attrs": {
        "__lr_mult__": "0.25",
        "kernel": "(1, 1)",
        "no_bias": "True",
        "num_filter": "128",
        "pad": "(0, 0)",
        "stride": "(1, 1)",
        "workspace": "512"
      },
      "inputs": []
    },
    {
      "op": "Convolution",
      "name": "stage2_unit4_conv1",
      "attrs": {
        "__lr_mult__": "0.25",
        "kernel": "(1, 1)",
        "no_bias": "True",
        "num_filter": "128",
        "pad": "(0, 0)",
        "stride": "(1, 1)",
        "workspace": "512"
      },
      "inputs": [[175, 0, 0], [176, 0, 0]]
    },
    {
      "op": "null",
      "name": "stage2_unit4_bn2_gamma",
      "attrs": {
        "__lr_mult__": "0.25",
        "eps": "2e-05",
        "fix_gamma": "False",
        "momentum": "0.9",
        "use_global_stats": "True"
      },
      "inputs": []
    },
    {
      "op": "null",
      "name": "stage2_unit4_bn2_beta",
      "attrs": {
        "__lr_mult__": "0.25",
        "eps": "2e-05",
        "fix_gamma": "False",
        "momentum": "0.9",
        "use_global_stats": "True"
      },
      "inputs": []
    },
    {
      "op": "null",
      "name": "stage2_unit4_bn2_moving_mean",
      "attrs": {
        "__init__": "[\"zero\", {}]",
        "__lr_mult__": "0.25",
        "eps": "2e-05",
        "fix_gamma": "False",
        "momentum": "0.9",
        "use_global_stats": "True"
      },
      "inputs": []
    },
    {
      "op": "null",
      "name": "stage2_unit4_bn2_moving_var",
      "attrs": {
        "__init__": "[\"one\", {}]",
        "__lr_mult__": "0.25",
        "eps": "2e-05",
        "fix_gamma": "False",
        "momentum": "0.9",
        "use_global_stats": "True"
      },
      "inputs": []
    },
    {
      "op": "BatchNorm",
      "name": "stage2_unit4_bn2",
      "attrs": {
        "__lr_mult__": "0.25",
        "eps": "2e-05",
        "fix_gamma": "False",
        "momentum": "0.9",
        "use_global_stats": "True"
      },
      "inputs": [[177, 0, 0], [178, 0, 0], [179, 0, 0], [180, 0, 1], [181, 0, 1]]
    },
    {
      "op": "Activation",
      "name": "stage2_unit4_relu2",
      "attrs": {
        "__lr_mult__": "0.25",
        "act_type": "relu"
      },
      "inputs": [[182, 0, 0]]
    },
    {
      "op": "null",
      "name": "stage2_unit4_conv2_weight",
      "attrs": {
        "__lr_mult__": "0.25",
        "kernel": "(3, 3)",
        "no_bias": "True",
        "num_filter": "128",
        "pad": "(1, 1)",
        "stride": "(1, 1)",
        "workspace": "512"
      },
      "inputs": []
    },
    {
      "op": "Convolution",
      "name": "stage2_unit4_conv2",
      "attrs": {
        "__lr_mult__": "0.25",
        "kernel": "(3, 3)",
        "no_bias": "True",
        "num_filter": "128",
        "pad": "(1, 1)",
        "stride": "(1, 1)",
        "workspace": "512"
      },
      "inputs": [[183, 0, 0], [184, 0, 0]]
    },
    {
      "op": "null",
      "name": "stage2_unit4_bn3_gamma",
      "attrs": {
        "__lr_mult__": "0.25",
        "eps": "2e-05",
        "fix_gamma": "False",
        "momentum": "0.9",
        "use_global_stats": "True"
      },
      "inputs": []
    },
    {
      "op": "null",
      "name": "stage2_unit4_bn3_beta",
      "attrs": {
        "__lr_mult__": "0.25",
        "eps": "2e-05",
        "fix_gamma": "False",
        "momentum": "0.9",
        "use_global_stats": "True"
      },
      "inputs": []
    },
    {
      "op": "null",
      "name": "stage2_unit4_bn3_moving_mean",
      "attrs": {
        "__init__": "[\"zero\", {}]",
        "__lr_mult__": "0.25",
        "eps": "2e-05",
        "fix_gamma": "False",
        "momentum": "0.9",
        "use_global_stats": "True"
      },
      "inputs": []
    },
    {
      "op": "null",
      "name": "stage2_unit4_bn3_moving_var",
      "attrs": {
        "__init__": "[\"one\", {}]",
        "__lr_mult__": "0.25",
        "eps": "2e-05",
        "fix_gamma": "False",
        "momentum": "0.9",
        "use_global_stats": "True"
      },
      "inputs": []
    },
    {
      "op": "BatchNorm",
      "name": "stage2_unit4_bn3",
      "attrs": {
        "__lr_mult__": "0.25",
        "eps": "2e-05",
        "fix_gamma": "False",
        "momentum": "0.9",
        "use_global_stats": "True"
      },
      "inputs": [[185, 0, 0], [186, 0, 0], [187, 0, 0], [188, 0, 1], [189, 0, 1]]
    },
    {
      "op": "Activation",
      "name": "stage2_unit4_relu3",
      "attrs": {
        "__lr_mult__": "0.25",
        "act_type": "relu"
      },
      "inputs": [[190, 0, 0]]
    },
    {
      "op": "null",
      "name": "stage2_unit4_conv3_weight",
      "attrs": {
        "__lr_mult__": "0.25",
        "kernel": "(1, 1)",
        "no_bias": "True",
        "num_filter": "512",
        "pad": "(0, 0)",
        "stride": "(1, 1)",
        "workspace": "512"
      },
      "inputs": []
    },
    {
      "op": "Convolution",
      "name": "stage2_unit4_conv3",
      "attrs": {
        "__lr_mult__": "0.25",
        "kernel": "(1, 1)",
        "no_bias": "True",
        "num_filter": "512",
        "pad": "(0, 0)",
        "stride": "(1, 1)",
        "workspace": "512"
      },
      "inputs": [[191, 0, 0], [192, 0, 0]]
    },
    {
      "op": "elemwise_add",
      "name": "_plus6",
      "attrs": {"__lr_mult__": "0.25"},
      "inputs": [[193, 0, 0], [169, 0, 0]]
    },
    {
      "op": "Activation",
      "name": "net_fts_conv_relu",
      "attrs": {"act_type": "relu"},
      "inputs": [[194, 0, 0]]
    },
    {
      "op": "null",
      "name": "net_fts_conv_weight",
      "attrs": {
        "__lr_mult__": "1",
        "kernel": "(1, 1)",
        "no_bias": "True",
        "num_filter": "256",
        "pad": "(0, 0)",
        "stride": "(1, 1)"
      },
      "inputs": []
    },
    {
      "op": "Convolution",
      "name": "net_fts_conv",
      "attrs": {
        "__lr_mult__": "1",
        "kernel": "(1, 1)",
        "no_bias": "True",
        "num_filter": "256",
        "pad": "(0, 0)",
        "stride": "(1, 1)"
      },
      "inputs": [[195, 0, 0], [196, 0, 0]]
    },
    {
      "op": "null",
      "name": "net_fts_conv_bn_gamma",
      "attrs": {
        "eps": "1e-05",
        "fix_gamma": "False",
        "momentum": "0.9"
      },
      "inputs": []
    },
    {
      "op": "null",
      "name": "net_fts_conv_bn_beta",
      "attrs": {
        "eps": "1e-05",
        "fix_gamma": "False",
        "momentum": "0.9"
      },
      "inputs": []
    },
    {
      "op": "null",
      "name": "net_fts_conv_bn_moving_mean",
      "attrs": {
        "__init__": "[\"zero\", {}]",
        "eps": "1e-05",
        "fix_gamma": "False",
        "momentum": "0.9"
      },
      "inputs": []
    },
    {
      "op": "null",
      "name": "net_fts_conv_bn_moving_var",
      "attrs": {
        "__init__": "[\"one\", {}]",
        "eps": "1e-05",
        "fix_gamma": "False",
        "momentum": "0.9"
      },
      "inputs": []
    },
    {
      "op": "BatchNorm",
      "name": "net_fts_conv_bn",
      "attrs": {
        "eps": "1e-05",
        "fix_gamma": "False",
        "momentum": "0.9"
      },
      "inputs": [[197, 0, 0], [198, 0, 0], [199, 0, 0], [200, 0, 1], [201, 0, 1]]
    },
    {
      "op": "broadcast_mul",
      "name": "hgfpn_stage1_mul",
      "inputs": [[0, 0, 0], [202, 0, 0]]
    },
    {
      "op": "Activation",
      "name": "hgfpn_stage1_HG_resdown1_conv0_1_relu",
      "attrs": {"act_type": "relu"},
      "inputs": [[202, 0, 0]]
    },
    {
      "op": "null",
      "name": "hgfpn_stage1_HG_resdown1_conv0_1_weight",
      "attrs": {
        "__lr_mult__": "1",
        "kernel": "(1, 1)",
        "no_bias": "True",
        "num_filter": "64",
        "pad": "(0, 0)",
        "stride": "(1, 1)"
      },
      "inputs": []
    },
    {
      "op": "Convolution",
      "name": "hgfpn_stage1_HG_resdown1_conv0_1",
      "attrs": {
        "__lr_mult__": "1",
        "kernel": "(1, 1)",
        "no_bias": "True",
        "num_filter": "64",
        "pad": "(0, 0)",
        "stride": "(1, 1)"
      },
      "inputs": [[204, 0, 0], [205, 0, 0]]
    },
    {
      "op": "null",
      "name": "hgfpn_stage1_HG_resdown1_conv0_1_bn_gamma",
      "attrs": {
        "eps": "1e-05",
        "fix_gamma": "False",
        "momentum": "0.9"
      },
      "inputs": []
    },
    {
      "op": "null",
      "name": "hgfpn_stage1_HG_resdown1_conv0_1_bn_beta",
      "attrs": {
        "eps": "1e-05",
        "fix_gamma": "False",
        "momentum": "0.9"
      },
      "inputs": []
    },
    {
      "op": "null",
      "name": "hgfpn_stage1_HG_resdown1_conv0_1_bn_moving_mean",
      "attrs": {
        "__init__": "[\"zero\", {}]",
        "eps": "1e-05",
        "fix_gamma": "False",
        "momentum": "0.9"
      },
      "inputs": []
    },
    {
      "op": "null",
      "name": "hgfpn_stage1_HG_resdown1_conv0_1_bn_moving_var",
      "attrs": {
        "__init__": "[\"one\", {}]",
        "eps": "1e-05",
        "fix_gamma": "False",
        "momentum": "0.9"
      },
      "inputs": []
    },
    {
      "op": "BatchNorm",
      "name": "hgfpn_stage1_HG_resdown1_conv0_1_bn",
      "attrs": {
        "eps": "1e-05",
        "fix_gamma": "False",
        "momentum": "0.9"
      },
      "inputs": [[206, 0, 0], [207, 0, 0], [208, 0, 0], [209, 0, 1], [210, 0, 1]]
    },
    {
      "op": "Activation",
      "name": "hgfpn_stage1_HG_resdown1_conv0_relu",
      "attrs": {"act_type": "relu"},
      "inputs": [[211, 0, 0]]
    },
    {
      "op": "null",
      "name": "hgfpn_stage1_HG_resdown1_conv0_weight",
      "attrs": {
        "__lr_mult__": "1",
        "kernel": "(3, 3)",
        "no_bias": "True",
        "num_filter": "64",
        "pad": "(1, 1)",
        "stride": "(1, 1)"
      },
      "inputs": []
    },
    {
      "op": "Convolution",
      "name": "hgfpn_stage1_HG_resdown1_conv0",
      "attrs": {
        "__lr_mult__": "1",
        "kernel": "(3, 3)",
        "no_bias": "True",
        "num_filter": "64",
        "pad": "(1, 1)",
        "stride": "(1, 1)"
      },
      "inputs": [[212, 0, 0], [213, 0, 0]]
    },
    {
      "op": "null",
      "name": "hgfpn_stage1_HG_resdown1_conv0_bn_gamma",
      "attrs": {
        "eps": "1e-05",
        "fix_gamma": "False",
        "momentum": "0.9"
      },
      "inputs": []
    },
    {
      "op": "null",
      "name": "hgfpn_stage1_HG_resdown1_conv0_bn_beta",
      "attrs": {
        "eps": "1e-05",
        "fix_gamma": "False",
        "momentum": "0.9"
      },
      "inputs": []
    },
    {
      "op": "null",
      "name": "hgfpn_stage1_HG_resdown1_conv0_bn_moving_mean",
      "attrs": {
        "__init__": "[\"zero\", {}]",
        "eps": "1e-05",
        "fix_gamma": "False",
        "momentum": "0.9"
      },
      "inputs": []
    },
    {
      "op": "null",
      "name": "hgfpn_stage1_HG_resdown1_conv0_bn_moving_var",
      "attrs": {
        "__init__": "[\"one\", {}]",
        "eps": "1e-05",
        "fix_gamma": "False",
        "momentum": "0.9"
      },
      "inputs": []
    },
    {
      "op": "BatchNorm",
      "name": "hgfpn_stage1_HG_resdown1_conv0_bn",
      "attrs": {
        "eps": "1e-05",
        "fix_gamma": "False",
        "momentum": "0.9"
      },
      "inputs": [[214, 0, 0], [215, 0, 0], [216, 0, 0], [217, 0, 1], [218, 0, 1]]
    },
    {
      "op": "Activation",
      "name": "hgfpn_stage1_HG_resdown1_conv1_1_relu",
      "attrs": {"act_type": "relu"},
      "inputs": [[219, 0, 0]]
    },
    {
      "op": "null",
      "name": "hgfpn_stage1_HG_resdown1_conv1_1_weight",
      "attrs": {
        "__lr_mult__": "1",
        "kernel": "(1, 1)",
        "no_bias": "True",
        "num_filter": "64",
        "pad": "(0, 0)",
        "stride": "(1, 1)"
      },
      "inputs": []
    },
    {
      "op": "Convolution",
      "name": "hgfpn_stage1_HG_resdown1_conv1_1",
      "attrs": {
        "__lr_mult__": "1",
        "kernel": "(1, 1)",
        "no_bias": "True",
        "num_filter": "64",
        "pad": "(0, 0)",
        "stride": "(1, 1)"
      },
      "inputs": [[220, 0, 0], [221, 0, 0]]
    },
    {
      "op": "null",
      "name": "hgfpn_stage1_HG_resdown1_conv1_1_bn_gamma",
      "attrs": {
        "eps": "1e-05",
        "fix_gamma": "False",
        "momentum": "0.9"
      },
      "inputs": []
    },
    {
      "op": "null",
      "name": "hgfpn_stage1_HG_resdown1_conv1_1_bn_beta",
      "attrs": {
        "eps": "1e-05",
        "fix_gamma": "False",
        "momentum": "0.9"
      },
      "inputs": []
    },
    {
      "op": "null",
      "name": "hgfpn_stage1_HG_resdown1_conv1_1_bn_moving_mean",
      "attrs": {
        "__init__": "[\"zero\", {}]",
        "eps": "1e-05",
        "fix_gamma": "False",
        "momentum": "0.9"
      },
      "inputs": []
    },
    {
      "op": "null",
      "name": "hgfpn_stage1_HG_resdown1_conv1_1_bn_moving_var",
      "attrs": {
        "__init__": "[\"one\", {}]",
        "eps": "1e-05",
        "fix_gamma": "False",
        "momentum": "0.9"
      },
      "inputs": []
    },
    {
      "op": "BatchNorm",
      "name": "hgfpn_stage1_HG_resdown1_conv1_1_bn",
      "attrs": {
        "eps": "1e-05",
        "fix_gamma": "False",
        "momentum": "0.9"
      },
      "inputs": [[222, 0, 0], [223, 0, 0], [224, 0, 0], [225, 0, 1], [226, 0, 1]]
    },
    {
      "op": "Activation",
      "name": "hgfpn_stage1_HG_resdown1_conv1_3_relu",
      "attrs": {"act_type": "relu"},
      "inputs": [[227, 0, 0]]
    },
    {
      "op": "null",
      "name": "hgfpn_stage1_HG_resdown1_conv1_3_weight",
      "attrs": {
        "__lr_mult__": "1",
        "kernel": "(3, 3)",
        "no_bias": "True",
        "num_filter": "32",
        "pad": "(1, 1)",
        "stride": "(1, 1)"
      },
      "inputs": []
    },
    {
      "op": "Convolution",
      "name": "hgfpn_stage1_HG_resdown1_conv1_3",
      "attrs": {
        "__lr_mult__": "1",
        "kernel": "(3, 3)",
        "no_bias": "True",
        "num_filter": "32",
        "pad": "(1, 1)",
        "stride": "(1, 1)"
      },
      "inputs": [[228, 0, 0], [229, 0, 0]]
    },
    {
      "op": "null",
      "name": "hgfpn_stage1_HG_resdown1_conv1_3_bn_gamma",
      "attrs": {
        "eps": "1e-05",
        "fix_gamma": "False",
        "momentum": "0.9"
      },
      "inputs": []
    },
    {
      "op": "null",
      "name": "hgfpn_stage1_HG_resdown1_conv1_3_bn_beta",
      "attrs": {
        "eps": "1e-05",
        "fix_gamma": "False",
        "momentum": "0.9"
      },
      "inputs": []
    },
    {
      "op": "null",
      "name": "hgfpn_stage1_HG_resdown1_conv1_3_bn_moving_mean",
      "attrs": {
        "__init__": "[\"zero\", {}]",
        "eps": "1e-05",
        "fix_gamma": "False",
        "momentum": "0.9"
      },
      "inputs": []
    },
    {
      "op": "null",
      "name": "hgfpn_stage1_HG_resdown1_conv1_3_bn_moving_var",
      "attrs": {
        "__init__": "[\"one\", {}]",
        "eps": "1e-05",
        "fix_gamma": "False",
        "momentum": "0.9"
      },
      "inputs": []
    },
    {
      "op": "BatchNorm",
      "name": "hgfpn_stage1_HG_resdown1_conv1_3_bn",
      "attrs": {
        "eps": "1e-05",
        "fix_gamma": "False",
        "momentum": "0.9"
      },
      "inputs": [[230, 0, 0], [231, 0, 0], [232, 0, 0], [233, 0, 1], [234, 0, 1]]
    },
    {
      "op": "Concat",
      "name": "hgfpn_stage1_HG_resdown1_concat1",
      "attrs": {"num_args": "2"},
      "inputs": [[219, 0, 0], [235, 0, 0]]
    },
    {
      "op": "Activation",
      "name": "hgfpn_stage1_HG_resdown1_conv2_1_relu",
      "attrs": {"act_type": "relu"},
      "inputs": [[236, 0, 0]]
    },
    {
      "op": "null",
      "name": "hgfpn_stage1_HG_resdown1_conv2_1_weight",
      "attrs": {
        "__lr_mult__": "1",
        "kernel": "(1, 1)",
        "no_bias": "True",
        "num_filter": "64",
        "pad": "(0, 0)",
        "stride": "(1, 1)"
      },
      "inputs": []
    },
    {
      "op": "Convolution",
      "name": "hgfpn_stage1_HG_resdown1_conv2_1",
      "attrs": {
        "__lr_mult__": "1",
        "kernel": "(1, 1)",
        "no_bias": "True",
        "num_filter": "64",
        "pad": "(0, 0)",
        "stride": "(1, 1)"
      },
      "inputs": [[237, 0, 0], [238, 0, 0]]
    },
    {
      "op": "null",
      "name": "hgfpn_stage1_HG_resdown1_conv2_1_bn_gamma",
      "attrs": {
        "eps": "1e-05",
        "fix_gamma": "False",
        "momentum": "0.9"
      },
      "inputs": []
    },
    {
      "op": "null",
      "name": "hgfpn_stage1_HG_resdown1_conv2_1_bn_beta",
      "attrs": {
        "eps": "1e-05",
        "fix_gamma": "False",
        "momentum": "0.9"
      },
      "inputs": []
    },
    {
      "op": "null",
      "name": "hgfpn_stage1_HG_resdown1_conv2_1_bn_moving_mean",
      "attrs": {
        "__init__": "[\"zero\", {}]",
        "eps": "1e-05",
        "fix_gamma": "False",
        "momentum": "0.9"
      },
      "inputs": []
    },
    {
      "op": "null",
      "name": "hgfpn_stage1_HG_resdown1_conv2_1_bn_moving_var",
      "attrs": {
        "__init__": "[\"one\", {}]",
        "eps": "1e-05",
        "fix_gamma": "False",
        "momentum": "0.9"
      },
      "inputs": []
    },
    {
      "op": "BatchNorm",
      "name": "hgfpn_stage1_HG_resdown1_conv2_1_bn",
      "attrs": {
        "eps": "1e-05",
        "fix_gamma": "False",
        "momentum": "0.9"
      },
      "inputs": [[239, 0, 0], [240, 0, 0], [241, 0, 0], [242, 0, 1], [243, 0, 1]]
    },
    {
      "op": "Activation",
      "name": "hgfpn_stage1_HG_resdown1_conv2_3_relu",
      "attrs": {"act_type": "relu"},
      "inputs": [[244, 0, 0]]
    },
    {
      "op": "null",
      "name": "hgfpn_stage1_HG_resdown1_conv2_3_weight",
      "attrs": {
        "__lr_mult__": "1",
        "kernel": "(3, 3)",
        "no_bias": "True",
        "num_filter": "32",
        "pad": "(1, 1)",
        "stride": "(1, 1)"
      },
      "inputs": []
    },
    {
      "op": "Convolution",
      "name": "hgfpn_stage1_HG_resdown1_conv2_3",
      "attrs": {
        "__lr_mult__": "1",
        "kernel": "(3, 3)",
        "no_bias": "True",
        "num_filter": "32",
        "pad": "(1, 1)",
        "stride": "(1, 1)"
      },
      "inputs": [[245, 0, 0], [246, 0, 0]]
    },
    {
      "op": "null",
      "name": "hgfpn_stage1_HG_resdown1_conv2_3_bn_gamma",
      "attrs": {
        "eps": "1e-05",
        "fix_gamma": "False",
        "momentum": "0.9"
      },
      "inputs": []
    },
    {
      "op": "null",
      "name": "hgfpn_stage1_HG_resdown1_conv2_3_bn_beta",
      "attrs": {
        "eps": "1e-05",
        "fix_gamma": "False",
        "momentum": "0.9"
      },
      "inputs": []
    },
    {
      "op": "null",
      "name": "hgfpn_stage1_HG_resdown1_conv2_3_bn_moving_mean",
      "attrs": {
        "__init__": "[\"zero\", {}]",
        "eps": "1e-05",
        "fix_gamma": "False",
        "momentum": "0.9"
      },
      "inputs": []
    },
    {
      "op": "null",
      "name": "hgfpn_stage1_HG_resdown1_conv2_3_bn_moving_var",
      "attrs": {
        "__init__": "[\"one\", {}]",
        "eps": "1e-05",
        "fix_gamma": "False",
        "momentum": "0.9"
      },
      "inputs": []
    },
    {
      "op": "BatchNorm",
      "name": "hgfpn_stage1_HG_resdown1_conv2_3_bn",
      "attrs": {
        "eps": "1e-05",
        "fix_gamma": "False",
        "momentum": "0.9"
      },
      "inputs": [[247, 0, 0], [248, 0, 0], [249, 0, 0], [250, 0, 1], [251, 0, 1]]
    },
    {
      "op": "Concat",
      "name": "hgfpn_stage1_HG_resdown1_concat2",
      "attrs": {"num_args": "2"},
      "inputs": [[236, 0, 0], [252, 0, 0]]
    },
    {
      "op": "Activation",
      "name": "hgfpn_stage1_HG_resdown1_conv8_relu",
      "attrs": {"act_type": "relu"},
      "inputs": [[253, 0, 0]]
    },
    {
      "op": "null",
      "name": "hgfpn_stage1_HG_resdown1_conv8_weight",
      "attrs": {
        "__lr_mult__": "1",
        "kernel": "(1, 1)",
        "no_bias": "True",
        "num_filter": "256",
        "pad": "(0, 0)",
        "stride": "(1, 1)"
      },
      "inputs": []
    },
    {
      "op": "Convolution",
      "name": "hgfpn_stage1_HG_resdown1_conv8",
      "attrs": {
        "__lr_mult__": "1",
        "kernel": "(1, 1)",
        "no_bias": "True",
        "num_filter": "256",
        "pad": "(0, 0)",
        "stride": "(1, 1)"
      },
      "inputs": [[254, 0, 0], [255, 0, 0]]
    },
    {
      "op": "null",
      "name": "hgfpn_stage1_HG_resdown1_conv8_bn_gamma",
      "attrs": {
        "eps": "1e-05",
        "fix_gamma": "False",
        "momentum": "0.9"
      },
      "inputs": []
    },
    {
      "op": "null",
      "name": "hgfpn_stage1_HG_resdown1_conv8_bn_beta",
      "attrs": {
        "eps": "1e-05",
        "fix_gamma": "False",
        "momentum": "0.9"
      },
      "inputs": []
    },
    {
      "op": "null",
      "name": "hgfpn_stage1_HG_resdown1_conv8_bn_moving_mean",
      "attrs": {
        "__init__": "[\"zero\", {}]",
        "eps": "1e-05",
        "fix_gamma": "False",
        "momentum": "0.9"
      },
      "inputs": []
    },
    {
      "op": "null",
      "name": "hgfpn_stage1_HG_resdown1_conv8_bn_moving_var",
      "attrs": {
        "__init__": "[\"one\", {}]",
        "eps": "1e-05",
        "fix_gamma": "False",
        "momentum": "0.9"
      },
      "inputs": []
    },
    {
      "op": "BatchNorm",
      "name": "hgfpn_stage1_HG_resdown1_conv8_bn",
      "attrs": {
        "eps": "1e-05",
        "fix_gamma": "False",
        "momentum": "0.9"
      },
      "inputs": [[256, 0, 0], [257, 0, 0], [258, 0, 0], [259, 0, 1], [260, 0, 1]]
    },
    {
      "op": "add_n",
      "name": "hgfpn_stage1_HG_resdown1_add1",
      "attrs": {"num_args": "2"},
      "inputs": [[261, 0, 0], [202, 0, 0]]
    },
    {
      "op": "Pooling",
      "name": "hgfpn_stage1_HG_pldown1",
      "attrs": {
        "kernel": "(2, 2)",
        "pad": "(0, 0)",
        "pool_type": "max",
        "stride": "(2, 2)"
      },
      "inputs": [[262, 0, 0]]
    },
    {
      "op": "Activation",
      "name": "hgfpn_stage1_HG_resdown2_conv0_1_relu",
      "attrs": {"act_type": "relu"},
      "inputs": [[263, 0, 0]]
    },
    {
      "op": "null",
      "name": "hgfpn_stage1_HG_resdown2_conv0_1_weight",
      "attrs": {
        "__lr_mult__": "1",
        "kernel": "(1, 1)",
        "no_bias": "True",
        "num_filter": "64",
        "pad": "(0, 0)",
        "stride": "(1, 1)"
      },
      "inputs": []
    },
    {
      "op": "Convolution",
      "name": "hgfpn_stage1_HG_resdown2_conv0_1",
      "attrs": {
        "__lr_mult__": "1",
        "kernel": "(1, 1)",
        "no_bias": "True",
        "num_filter": "64",
        "pad": "(0, 0)",
        "stride": "(1, 1)"
      },
      "inputs": [[264, 0, 0], [265, 0, 0]]
    },
    {
      "op": "null",
      "name": "hgfpn_stage1_HG_resdown2_conv0_1_bn_gamma",
      "attrs": {
        "eps": "1e-05",
        "fix_gamma": "False",
        "momentum": "0.9"
      },
      "inputs": []
    },
    {
      "op": "null",
      "name": "hgfpn_stage1_HG_resdown2_conv0_1_bn_beta",
      "attrs": {
        "eps": "1e-05",
        "fix_gamma": "False",
        "momentum": "0.9"
      },
      "inputs": []
    },
    {
      "op": "null",
      "name": "hgfpn_stage1_HG_resdown2_conv0_1_bn_moving_mean",
      "attrs": {
        "__init__": "[\"zero\", {}]",
        "eps": "1e-05",
        "fix_gamma": "False",
        "momentum": "0.9"
      },
      "inputs": []
    },
    {
      "op": "null",
      "name": "hgfpn_stage1_HG_resdown2_conv0_1_bn_moving_var",
      "attrs": {
        "__init__": "[\"one\", {}]",
        "eps": "1e-05",
        "fix_gamma": "False",
        "momentum": "0.9"
      },
      "inputs": []
    },
    {
      "op": "BatchNorm",
      "name": "hgfpn_stage1_HG_resdown2_conv0_1_bn",
      "attrs": {
        "eps": "1e-05",
        "fix_gamma": "False",
        "momentum": "0.9"
      },
      "inputs": [[266, 0, 0], [267, 0, 0], [268, 0, 0], [269, 0, 1], [270, 0, 1]]
    },
    {
      "op": "Activation",
      "name": "hgfpn_stage1_HG_resdown2_conv0_relu",
      "attrs": {"act_type": "relu"},
      "inputs": [[271, 0, 0]]
    },
    {
      "op": "null",
      "name": "hgfpn_stage1_HG_resdown2_conv0_weight",
      "attrs": {
        "__lr_mult__": "1",
        "kernel": "(3, 3)",
        "no_bias": "True",
        "num_filter": "64",
        "pad": "(1, 1)",
        "stride": "(1, 1)"
      },
      "inputs": []
    },
    {
      "op": "Convolution",
      "name": "hgfpn_stage1_HG_resdown2_conv0",
      "attrs": {
        "__lr_mult__": "1",
        "kernel": "(3, 3)",
        "no_bias": "True",
        "num_filter": "64",
        "pad": "(1, 1)",
        "stride": "(1, 1)"
      },
      "inputs": [[272, 0, 0], [273, 0, 0]]
    },
    {
      "op": "null",
      "name": "hgfpn_stage1_HG_resdown2_conv0_bn_gamma",
      "attrs": {
        "eps": "1e-05",
        "fix_gamma": "False",
        "momentum": "0.9"
      },
      "inputs": []
    },
    {
      "op": "null",
      "name": "hgfpn_stage1_HG_resdown2_conv0_bn_beta",
      "attrs": {
        "eps": "1e-05",
        "fix_gamma": "False",
        "momentum": "0.9"
      },
      "inputs": []
    },
    {
      "op": "null",
      "name": "hgfpn_stage1_HG_resdown2_conv0_bn_moving_mean",
      "attrs": {
        "__init__": "[\"zero\", {}]",
        "eps": "1e-05",
        "fix_gamma": "False",
        "momentum": "0.9"
      },
      "inputs": []
    },
    {
      "op": "null",
      "name": "hgfpn_stage1_HG_resdown2_conv0_bn_moving_var",
      "attrs": {
        "__init__": "[\"one\", {}]",
        "eps": "1e-05",
        "fix_gamma": "False",
        "momentum": "0.9"
      },
      "inputs": []
    },
    {
      "op": "BatchNorm",
      "name": "hgfpn_stage1_HG_resdown2_conv0_bn",
      "attrs": {
        "eps": "1e-05",
        "fix_gamma": "False",
        "momentum": "0.9"
      },
      "inputs": [[274, 0, 0], [275, 0, 0], [276, 0, 0], [277, 0, 1], [278, 0, 1]]
    },
    {
      "op": "Activation",
      "name": "hgfpn_stage1_HG_resdown2_conv1_1_relu",
      "attrs": {"act_type": "relu"},
      "inputs": [[279, 0, 0]]
    },
    {
      "op": "null",
      "name": "hgfpn_stage1_HG_resdown2_conv1_1_weight",
      "attrs": {
        "__lr_mult__": "1",
        "kernel": "(1, 1)",
        "no_bias": "True",
        "num_filter": "64",
        "pad": "(0, 0)",
        "stride": "(1, 1)"
      },
      "inputs": []
    },
    {
      "op": "Convolution",
      "name": "hgfpn_stage1_HG_resdown2_conv1_1",
      "attrs": {
        "__lr_mult__": "1",
        "kernel": "(1, 1)",
        "no_bias": "True",
        "num_filter": "64",
        "pad": "(0, 0)",
        "stride": "(1, 1)"
      },
      "inputs": [[280, 0, 0], [281, 0, 0]]
    },
    {
      "op": "null",
      "name": "hgfpn_stage1_HG_resdown2_conv1_1_bn_gamma",
      "attrs": {
        "eps": "1e-05",
        "fix_gamma": "False",
        "momentum": "0.9"
      },
      "inputs": []
    },
    {
      "op": "null",
      "name": "hgfpn_stage1_HG_resdown2_conv1_1_bn_beta",
      "attrs": {
        "eps": "1e-05",
        "fix_gamma": "False",
        "momentum": "0.9"
      },
      "inputs": []
    },
    {
      "op": "null",
      "name": "hgfpn_stage1_HG_resdown2_conv1_1_bn_moving_mean",
      "attrs": {
        "__init__": "[\"zero\", {}]",
        "eps": "1e-05",
        "fix_gamma": "False",
        "momentum": "0.9"
      },
      "inputs": []
    },
    {
      "op": "null",
      "name": "hgfpn_stage1_HG_resdown2_conv1_1_bn_moving_var",
      "attrs": {
        "__init__": "[\"one\", {}]",
        "eps": "1e-05",
        "fix_gamma": "False",
        "momentum": "0.9"
      },
      "inputs": []
    },
    {
      "op": "BatchNorm",
      "name": "hgfpn_stage1_HG_resdown2_conv1_1_bn",
      "attrs": {
        "eps": "1e-05",
        "fix_gamma": "False",
        "momentum": "0.9"
      },
      "inputs": [[282, 0, 0], [283, 0, 0], [284, 0, 0], [285, 0, 1], [286, 0, 1]]
    },
    {
      "op": "Activation",
      "name": "hgfpn_stage1_HG_resdown2_conv1_3_relu",
      "attrs": {"act_type": "relu"},
      "inputs": [[287, 0, 0]]
    },
    {
      "op": "null",
      "name": "hgfpn_stage1_HG_resdown2_conv1_3_weight",
      "attrs": {
        "__lr_mult__": "1",
        "kernel": "(3, 3)",
        "no_bias": "True",
        "num_filter": "32",
        "pad": "(1, 1)",
        "stride": "(1, 1)"
      },
      "inputs": []
    },
    {
      "op": "Convolution",
      "name": "hgfpn_stage1_HG_resdown2_conv1_3",
      "attrs": {
        "__lr_mult__": "1",
        "kernel": "(3, 3)",
        "no_bias": "True",
        "num_filter": "32",
        "pad": "(1, 1)",
        "stride": "(1, 1)"
      },
      "inputs": [[288, 0, 0], [289, 0, 0]]
    },
    {
      "op": "null",
      "name": "hgfpn_stage1_HG_resdown2_conv1_3_bn_gamma",
      "attrs": {
        "eps": "1e-05",
        "fix_gamma": "False",
        "momentum": "0.9"
      },
      "inputs": []
    },
    {
      "op": "null",
      "name": "hgfpn_stage1_HG_resdown2_conv1_3_bn_beta",
      "attrs": {
        "eps": "1e-05",
        "fix_gamma": "False",
        "momentum": "0.9"
      },
      "inputs": []
    },
    {
      "op": "null",
      "name": "hgfpn_stage1_HG_resdown2_conv1_3_bn_moving_mean",
      "attrs": {
        "__init__": "[\"zero\", {}]",
        "eps": "1e-05",
        "fix_gamma": "False",
        "momentum": "0.9"
      },
      "inputs": []
    },
    {
      "op": "null",
      "name": "hgfpn_stage1_HG_resdown2_conv1_3_bn_moving_var",
      "attrs": {
        "__init__": "[\"one\", {}]",
        "eps": "1e-05",
        "fix_gamma": "False",
        "momentum": "0.9"
      },
      "inputs": []
    },
    {
      "op": "BatchNorm",
      "name": "hgfpn_stage1_HG_resdown2_conv1_3_bn",
      "attrs": {
        "eps": "1e-05",
        "fix_gamma": "False",
        "momentum": "0.9"
      },
      "inputs": [[290, 0, 0], [291, 0, 0], [292, 0, 0], [293, 0, 1], [294, 0, 1]]
    },
    {
      "op": "Concat",
      "name": "hgfpn_stage1_HG_resdown2_concat1",
      "attrs": {"num_args": "2"},
      "inputs": [[279, 0, 0], [295, 0, 0]]
    },
    {
      "op": "Activation",
      "name": "hgfpn_stage1_HG_resdown2_conv2_1_relu",
      "attrs": {"act_type": "relu"},
      "inputs": [[296, 0, 0]]
    },
    {
      "op": "null",
      "name": "hgfpn_stage1_HG_resdown2_conv2_1_weight",
      "attrs": {
        "__lr_mult__": "1",
        "kernel": "(1, 1)",
        "no_bias": "True",
        "num_filter": "64",
        "pad": "(0, 0)",
        "stride": "(1, 1)"
      },
      "inputs": []
    },
    {
      "op": "Convolution",
      "name": "hgfpn_stage1_HG_resdown2_conv2_1",
      "attrs": {
        "__lr_mult__": "1",
        "kernel": "(1, 1)",
        "no_bias": "True",
        "num_filter": "64",
        "pad": "(0, 0)",
        "stride": "(1, 1)"
      },
      "inputs": [[297, 0, 0], [298, 0, 0]]
    },
    {
      "op": "null",
      "name": "hgfpn_stage1_HG_resdown2_conv2_1_bn_gamma",
      "attrs": {
        "eps": "1e-05",
        "fix_gamma": "False",
        "momentum": "0.9"
      },
      "inputs": []
    },
    {
      "op": "null",
      "name": "hgfpn_stage1_HG_resdown2_conv2_1_bn_beta",
      "attrs": {
        "eps": "1e-05",
        "fix_gamma": "False",
        "momentum": "0.9"
      },
      "inputs": []
    },
    {
      "op": "null",
      "name": "hgfpn_stage1_HG_resdown2_conv2_1_bn_moving_mean",
      "attrs": {
        "__init__": "[\"zero\", {}]",
        "eps": "1e-05",
        "fix_gamma": "False",
        "momentum": "0.9"
      },
      "inputs": []
    },
    {
      "op": "null",
      "name": "hgfpn_stage1_HG_resdown2_conv2_1_bn_moving_var",
      "attrs": {
        "__init__": "[\"one\", {}]",
        "eps": "1e-05",
        "fix_gamma": "False",
        "momentum": "0.9"
      },
      "inputs": []
    },
    {
      "op": "BatchNorm",
      "name": "hgfpn_stage1_HG_resdown2_conv2_1_bn",
      "attrs": {
        "eps": "1e-05",
        "fix_gamma": "False",
        "momentum": "0.9"
      },
      "inputs": [[299, 0, 0], [300, 0, 0], [301, 0, 0], [302, 0, 1], [303, 0, 1]]
    },
    {
      "op": "Activation",
      "name": "hgfpn_stage1_HG_resdown2_conv2_3_relu",
      "attrs": {"act_type": "relu"},
      "inputs": [[304, 0, 0]]
    },
    {
      "op": "null",
      "name": "hgfpn_stage1_HG_resdown2_conv2_3_weight",
      "attrs": {
        "__lr_mult__": "1",
        "kernel": "(3, 3)",
        "no_bias": "True",
        "num_filter": "32",
        "pad": "(1, 1)",
        "stride": "(1, 1)"
      },
      "inputs": []
    },
    {
      "op": "Convolution",
      "name": "hgfpn_stage1_HG_resdown2_conv2_3",
      "attrs": {
        "__lr_mult__": "1",
        "kernel": "(3, 3)",
        "no_bias": "True",
        "num_filter": "32",
        "pad": "(1, 1)",
        "stride": "(1, 1)"
      },
      "inputs": [[305, 0, 0], [306, 0, 0]]
    },
    {
      "op": "null",
      "name": "hgfpn_stage1_HG_resdown2_conv2_3_bn_gamma",
      "attrs": {
        "eps": "1e-05",
        "fix_gamma": "False",
        "momentum": "0.9"
      },
      "inputs": []
    },
    {
      "op": "null",
      "name": "hgfpn_stage1_HG_resdown2_conv2_3_bn_beta",
      "attrs": {
        "eps": "1e-05",
        "fix_gamma": "False",
        "momentum": "0.9"
      },
      "inputs": []
    },
    {
      "op": "null",
      "name": "hgfpn_stage1_HG_resdown2_conv2_3_bn_moving_mean",
      "attrs": {
        "__init__": "[\"zero\", {}]",
        "eps": "1e-05",
        "fix_gamma": "False",
        "momentum": "0.9"
      },
      "inputs": []
    },
    {
      "op": "null",
      "name": "hgfpn_stage1_HG_resdown2_conv2_3_bn_moving_var",
      "attrs": {
        "__init__": "[\"one\", {}]",
        "eps": "1e-05",
        "fix_gamma": "False",
        "momentum": "0.9"
      },
      "inputs": []
    },
    {
      "op": "BatchNorm",
      "name": "hgfpn_stage1_HG_resdown2_conv2_3_bn",
      "attrs": {
        "eps": "1e-05",
        "fix_gamma": "False",
        "momentum": "0.9"
      },
      "inputs": [[307, 0, 0], [308, 0, 0], [309, 0, 0], [310, 0, 1], [311, 0, 1]]
    },
    {
      "op": "Concat",
      "name": "hgfpn_stage1_HG_resdown2_concat2",
      "attrs": {"num_args": "2"},
      "inputs": [[296, 0, 0], [312, 0, 0]]
    },
    {
      "op": "Activation",
      "name": "hgfpn_stage1_HG_resdown2_conv8_relu",
      "attrs": {"act_type": "relu"},
      "inputs": [[313, 0, 0]]
    },
    {
      "op": "null",
      "name": "hgfpn_stage1_HG_resdown2_conv8_weight",
      "attrs": {
        "__lr_mult__": "1",
        "kernel": "(1, 1)",
        "no_bias": "True",
        "num_filter": "256",
        "pad": "(0, 0)",
        "stride": "(1, 1)"
      },
      "inputs": []
    },
    {
      "op": "Convolution",
      "name": "hgfpn_stage1_HG_resdown2_conv8",
      "attrs": {
        "__lr_mult__": "1",
        "kernel": "(1, 1)",
        "no_bias": "True",
        "num_filter": "256",
        "pad": "(0, 0)",
        "stride": "(1, 1)"
      },
      "inputs": [[314, 0, 0], [315, 0, 0]]
    },
    {
      "op": "null",
      "name": "hgfpn_stage1_HG_resdown2_conv8_bn_gamma",
      "attrs": {
        "eps": "1e-05",
        "fix_gamma": "False",
        "momentum": "0.9"
      },
      "inputs": []
    },
    {
      "op": "null",
      "name": "hgfpn_stage1_HG_resdown2_conv8_bn_beta",
      "attrs": {
        "eps": "1e-05",
        "fix_gamma": "False",
        "momentum": "0.9"
      },
      "inputs": []
    },
    {
      "op": "null",
      "name": "hgfpn_stage1_HG_resdown2_conv8_bn_moving_mean",
      "attrs": {
        "__init__": "[\"zero\", {}]",
        "eps": "1e-05",
        "fix_gamma": "False",
        "momentum": "0.9"
      },
      "inputs": []
    },
    {
      "op": "null",
      "name": "hgfpn_stage1_HG_resdown2_conv8_bn_moving_var",
      "attrs": {
        "__init__": "[\"one\", {}]",
        "eps": "1e-05",
        "fix_gamma": "False",
        "momentum": "0.9"
      },
      "inputs": []
    },
    {
      "op": "BatchNorm",
      "name": "hgfpn_stage1_HG_resdown2_conv8_bn",
      "attrs": {
        "eps": "1e-05",
        "fix_gamma": "False",
        "momentum": "0.9"
      },
      "inputs": [[316, 0, 0], [317, 0, 0], [318, 0, 0], [319, 0, 1], [320, 0, 1]]
    },
    {
      "op": "add_n",
      "name": "hgfpn_stage1_HG_resdown2_add1",
      "attrs": {"num_args": "2"},
      "inputs": [[321, 0, 0], [263, 0, 0]]
    },
    {
      "op": "Pooling",
      "name": "hgfpn_stage1_HG_pldown2",
      "attrs": {
        "kernel": "(2, 2)",
        "pad": "(0, 0)",
        "pool_type": "max",
        "stride": "(2, 2)"
      },
      "inputs": [[322, 0, 0]]
    },
    {
      "op": "Activation",
      "name": "hgfpn_stage1_HG_resdown3_conv0_1_relu",
      "attrs": {"act_type": "relu"},
      "inputs": [[323, 0, 0]]
    },
    {
      "op": "null",
      "name": "hgfpn_stage1_HG_resdown3_conv0_1_weight",
      "attrs": {
        "__lr_mult__": "1",
        "kernel": "(1, 1)",
        "no_bias": "True",
        "num_filter": "64",
        "pad": "(0, 0)",
        "stride": "(1, 1)"
      },
      "inputs": []
    },
    {
      "op": "Convolution",
      "name": "hgfpn_stage1_HG_resdown3_conv0_1",
      "attrs": {
        "__lr_mult__": "1",
        "kernel": "(1, 1)",
        "no_bias": "True",
        "num_filter": "64",
        "pad": "(0, 0)",
        "stride": "(1, 1)"
      },
      "inputs": [[324, 0, 0], [325, 0, 0]]
    },
    {
      "op": "null",
      "name": "hgfpn_stage1_HG_resdown3_conv0_1_bn_gamma",
      "attrs": {
        "eps": "1e-05",
        "fix_gamma": "False",
        "momentum": "0.9"
      },
      "inputs": []
    },
    {
      "op": "null",
      "name": "hgfpn_stage1_HG_resdown3_conv0_1_bn_beta",
      "attrs": {
        "eps": "1e-05",
        "fix_gamma": "False",
        "momentum": "0.9"
      },
      "inputs": []
    },
    {
      "op": "null",
      "name": "hgfpn_stage1_HG_resdown3_conv0_1_bn_moving_mean",
      "attrs": {
        "__init__": "[\"zero\", {}]",
        "eps": "1e-05",
        "fix_gamma": "False",
        "momentum": "0.9"
      },
      "inputs": []
    },
    {
      "op": "null",
      "name": "hgfpn_stage1_HG_resdown3_conv0_1_bn_moving_var",
      "attrs": {
        "__init__": "[\"one\", {}]",
        "eps": "1e-05",
        "fix_gamma": "False",
        "momentum": "0.9"
      },
      "inputs": []
    },
    {
      "op": "BatchNorm",
      "name": "hgfpn_stage1_HG_resdown3_conv0_1_bn",
      "attrs": {
        "eps": "1e-05",
        "fix_gamma": "False",
        "momentum": "0.9"
      },
      "inputs": [[326, 0, 0], [327, 0, 0], [328, 0, 0], [329, 0, 1], [330, 0, 1]]
    },
    {
      "op": "Activation",
      "name": "hgfpn_stage1_HG_resdown3_conv0_relu",
      "attrs": {"act_type": "relu"},
      "inputs": [[331, 0, 0]]
    },
    {
      "op": "null",
      "name": "hgfpn_stage1_HG_resdown3_conv0_weight",
      "attrs": {
        "__lr_mult__": "1",
        "kernel": "(3, 3)",
        "no_bias": "True",
        "num_filter": "64",
        "pad": "(1, 1)",
        "stride": "(1, 1)"
      },
      "inputs": []
    },
    {
      "op": "Convolution",
      "name": "hgfpn_stage1_HG_resdown3_conv0",
      "attrs": {
        "__lr_mult__": "1",
        "kernel": "(3, 3)",
        "no_bias": "True",
        "num_filter": "64",
        "pad": "(1, 1)",
        "stride": "(1, 1)"
      },
      "inputs": [[332, 0, 0], [333, 0, 0]]
    },
    {
      "op": "null",
      "name": "hgfpn_stage1_HG_resdown3_conv0_bn_gamma",
      "attrs": {
        "eps": "1e-05",
        "fix_gamma": "False",
        "momentum": "0.9"
      },
      "inputs": []
    },
    {
      "op": "null",
      "name": "hgfpn_stage1_HG_resdown3_conv0_bn_beta",
      "attrs": {
        "eps": "1e-05",
        "fix_gamma": "False",
        "momentum": "0.9"
      },
      "inputs": []
    },
    {
      "op": "null",
      "name": "hgfpn_stage1_HG_resdown3_conv0_bn_moving_mean",
      "attrs": {
        "__init__": "[\"zero\", {}]",
        "eps": "1e-05",
        "fix_gamma": "False",
        "momentum": "0.9"
      },
      "inputs": []
    },
    {
      "op": "null",
      "name": "hgfpn_stage1_HG_resdown3_conv0_bn_moving_var",
      "attrs": {
        "__init__": "[\"one\", {}]",
        "eps": "1e-05",
        "fix_gamma": "False",
        "momentum": "0.9"
      },
      "inputs": []
    },
    {
      "op": "BatchNorm",
      "name": "hgfpn_stage1_HG_resdown3_conv0_bn",
      "attrs": {
        "eps": "1e-05",
        "fix_gamma": "False",
        "momentum": "0.9"
      },
      "inputs": [[334, 0, 0], [335, 0, 0], [336, 0, 0], [337, 0, 1], [338, 0, 1]]
    },
    {
      "op": "Activation",
      "name": "hgfpn_stage1_HG_resdown3_conv1_1_relu",
      "attrs": {"act_type": "relu"},
      "inputs": [[339, 0, 0]]
    },
    {
      "op": "null",
      "name": "hgfpn_stage1_HG_resdown3_conv1_1_weight",
      "attrs": {
        "__lr_mult__": "1",
        "kernel": "(1, 1)",
        "no_bias": "True",
        "num_filter": "64",
        "pad": "(0, 0)",
        "stride": "(1, 1)"
      },
      "inputs": []
    },
    {
      "op": "Convolution",
      "name": "hgfpn_stage1_HG_resdown3_conv1_1",
      "attrs": {
        "__lr_mult__": "1",
        "kernel": "(1, 1)",
        "no_bias": "True",
        "num_filter": "64",
        "pad": "(0, 0)",
        "stride": "(1, 1)"
      },
      "inputs": [[340, 0, 0], [341, 0, 0]]
    },
    {
      "op": "null",
      "name": "hgfpn_stage1_HG_resdown3_conv1_1_bn_gamma",
      "attrs": {
        "eps": "1e-05",
        "fix_gamma": "False",
        "momentum": "0.9"
      },
      "inputs": []
    },
    {
      "op": "null",
      "name": "hgfpn_stage1_HG_resdown3_conv1_1_bn_beta",
      "attrs": {
        "eps": "1e-05",
        "fix_gamma": "False",
        "momentum": "0.9"
      },
      "inputs": []
    },
    {
      "op": "null",
      "name": "hgfpn_stage1_HG_resdown3_conv1_1_bn_moving_mean",
      "attrs": {
        "__init__": "[\"zero\", {}]",
        "eps": "1e-05",
        "fix_gamma": "False",
        "momentum": "0.9"
      },
      "inputs": []
    },
    {
      "op": "null",
      "name": "hgfpn_stage1_HG_resdown3_conv1_1_bn_moving_var",
      "attrs": {
        "__init__": "[\"one\", {}]",
        "eps": "1e-05",
        "fix_gamma": "False",
        "momentum": "0.9"
      },
      "inputs": []
    },
    {
      "op": "BatchNorm",
      "name": "hgfpn_stage1_HG_resdown3_conv1_1_bn",
      "attrs": {
        "eps": "1e-05",
        "fix_gamma": "False",
        "momentum": "0.9"
      },
      "inputs": [[342, 0, 0], [343, 0, 0], [344, 0, 0], [345, 0, 1], [346, 0, 1]]
    },
    {
      "op": "Activation",
      "name": "hgfpn_stage1_HG_resdown3_conv1_3_relu",
      "attrs": {"act_type": "relu"},
      "inputs": [[347, 0, 0]]
    },
    {
      "op": "null",
      "name": "hgfpn_stage1_HG_resdown3_conv1_3_weight",
      "attrs": {
        "__lr_mult__": "1",
        "kernel": "(3, 3)",
        "no_bias": "True",
        "num_filter": "32",
        "pad": "(1, 1)",
        "stride": "(1, 1)"
      },
      "inputs": []
    },
    {
      "op": "Convolution",
      "name": "hgfpn_stage1_HG_resdown3_conv1_3",
      "attrs": {
        "__lr_mult__": "1",
        "kernel": "(3, 3)",
        "no_bias": "True",
        "num_filter": "32",
        "pad": "(1, 1)",
        "stride": "(1, 1)"
      },
      "inputs": [[348, 0, 0], [349, 0, 0]]
    },
    {
      "op": "null",
      "name": "hgfpn_stage1_HG_resdown3_conv1_3_bn_gamma",
      "attrs": {
        "eps": "1e-05",
        "fix_gamma": "False",
        "momentum": "0.9"
      },
      "inputs": []
    },
    {
      "op": "null",
      "name": "hgfpn_stage1_HG_resdown3_conv1_3_bn_beta",
      "attrs": {
        "eps": "1e-05",
        "fix_gamma": "False",
        "momentum": "0.9"
      },
      "inputs": []
    },
    {
      "op": "null",
      "name": "hgfpn_stage1_HG_resdown3_conv1_3_bn_moving_mean",
      "attrs": {
        "__init__": "[\"zero\", {}]",
        "eps": "1e-05",
        "fix_gamma": "False",
        "momentum": "0.9"
      },
      "inputs": []
    },
    {
      "op": "null",
      "name": "hgfpn_stage1_HG_resdown3_conv1_3_bn_moving_var",
      "attrs": {
        "__init__": "[\"one\", {}]",
        "eps": "1e-05",
        "fix_gamma": "False",
        "momentum": "0.9"
      },
      "inputs": []
    },
    {
      "op": "BatchNorm",
      "name": "hgfpn_stage1_HG_resdown3_conv1_3_bn",
      "attrs": {
        "eps": "1e-05",
        "fix_gamma": "False",
        "momentum": "0.9"
      },
      "inputs": [[350, 0, 0], [351, 0, 0], [352, 0, 0], [353, 0, 1], [354, 0, 1]]
    },
    {
      "op": "Concat",
      "name": "hgfpn_stage1_HG_resdown3_concat1",
      "attrs": {"num_args": "2"},
      "inputs": [[339, 0, 0], [355, 0, 0]]
    },
    {
      "op": "Activation",
      "name": "hgfpn_stage1_HG_resdown3_conv2_1_relu",
      "attrs": {"act_type": "relu"},
      "inputs": [[356, 0, 0]]
    },
    {
      "op": "null",
      "name": "hgfpn_stage1_HG_resdown3_conv2_1_weight",
      "attrs": {
        "__lr_mult__": "1",
        "kernel": "(1, 1)",
        "no_bias": "True",
        "num_filter": "64",
        "pad": "(0, 0)",
        "stride": "(1, 1)"
      },
      "inputs": []
    },
    {
      "op": "Convolution",
      "name": "hgfpn_stage1_HG_resdown3_conv2_1",
      "attrs": {
        "__lr_mult__": "1",
        "kernel": "(1, 1)",
        "no_bias": "True",
        "num_filter": "64",
        "pad": "(0, 0)",
        "stride": "(1, 1)"
      },
      "inputs": [[357, 0, 0], [358, 0, 0]]
    },
    {
      "op": "null",
      "name": "hgfpn_stage1_HG_resdown3_conv2_1_bn_gamma",
      "attrs": {
        "eps": "1e-05",
        "fix_gamma": "False",
        "momentum": "0.9"
      },
      "inputs": []
    },
    {
      "op": "null",
      "name": "hgfpn_stage1_HG_resdown3_conv2_1_bn_beta",
      "attrs": {
        "eps": "1e-05",
        "fix_gamma": "False",
        "momentum": "0.9"
      },
      "inputs": []
    },
    {
      "op": "null",
      "name": "hgfpn_stage1_HG_resdown3_conv2_1_bn_moving_mean",
      "attrs": {
        "__init__": "[\"zero\", {}]",
        "eps": "1e-05",
        "fix_gamma": "False",
        "momentum": "0.9"
      },
      "inputs": []
    },
    {
      "op": "null",
      "name": "hgfpn_stage1_HG_resdown3_conv2_1_bn_moving_var",
      "attrs": {
        "__init__": "[\"one\", {}]",
        "eps": "1e-05",
        "fix_gamma": "False",
        "momentum": "0.9"
      },
      "inputs": []
    },
    {
      "op": "BatchNorm",
      "name": "hgfpn_stage1_HG_resdown3_conv2_1_bn",
      "attrs": {
        "eps": "1e-05",
        "fix_gamma": "False",
        "momentum": "0.9"
      },
      "inputs": [[359, 0, 0], [360, 0, 0], [361, 0, 0], [362, 0, 1], [363, 0, 1]]
    },
    {
      "op": "Activation",
      "name": "hgfpn_stage1_HG_resdown3_conv2_3_relu",
      "attrs": {"act_type": "relu"},
      "inputs": [[364, 0, 0]]
    },
    {
      "op": "null",
      "name": "hgfpn_stage1_HG_resdown3_conv2_3_weight",
      "attrs": {
        "__lr_mult__": "1",
        "kernel": "(3, 3)",
        "no_bias": "True",
        "num_filter": "32",
        "pad": "(1, 1)",
        "stride": "(1, 1)"
      },
      "inputs": []
    },
    {
      "op": "Convolution",
      "name": "hgfpn_stage1_HG_resdown3_conv2_3",
      "attrs": {
        "__lr_mult__": "1",
        "kernel": "(3, 3)",
        "no_bias": "True",
        "num_filter": "32",
        "pad": "(1, 1)",
        "stride": "(1, 1)"
      },
      "inputs": [[365, 0, 0], [366, 0, 0]]
    },
    {
      "op": "null",
      "name": "hgfpn_stage1_HG_resdown3_conv2_3_bn_gamma",
      "attrs": {
        "eps": "1e-05",
        "fix_gamma": "False",
        "momentum": "0.9"
      },
      "inputs": []
    },
    {
      "op": "null",
      "name": "hgfpn_stage1_HG_resdown3_conv2_3_bn_beta",
      "attrs": {
        "eps": "1e-05",
        "fix_gamma": "False",
        "momentum": "0.9"
      },
      "inputs": []
    },
    {
      "op": "null",
      "name": "hgfpn_stage1_HG_resdown3_conv2_3_bn_moving_mean",
      "attrs": {
        "__init__": "[\"zero\", {}]",
        "eps": "1e-05",
        "fix_gamma": "False",
        "momentum": "0.9"
      },
      "inputs": []
    },
    {
      "op": "null",
      "name": "hgfpn_stage1_HG_resdown3_conv2_3_bn_moving_var",
      "attrs": {
        "__init__": "[\"one\", {}]",
        "eps": "1e-05",
        "fix_gamma": "False",
        "momentum": "0.9"
      },
      "inputs": []
    },
    {
      "op": "BatchNorm",
      "name": "hgfpn_stage1_HG_resdown3_conv2_3_bn",
      "attrs": {
        "eps": "1e-05",
        "fix_gamma": "False",
        "momentum": "0.9"
      },
      "inputs": [[367, 0, 0], [368, 0, 0], [369, 0, 0], [370, 0, 1], [371, 0, 1]]
    },
    {
      "op": "Concat",
      "name": "hgfpn_stage1_HG_resdown3_concat2",
      "attrs": {"num_args": "2"},
      "inputs": [[356, 0, 0], [372, 0, 0]]
    },
    {
      "op": "Activation",
      "name": "hgfpn_stage1_HG_resdown3_conv8_relu",
      "attrs": {"act_type": "relu"},
      "inputs": [[373, 0, 0]]
    },
    {
      "op": "null",
      "name": "hgfpn_stage1_HG_resdown3_conv8_weight",
      "attrs": {
        "__lr_mult__": "1",
        "kernel": "(1, 1)",
        "no_bias": "True",
        "num_filter": "256",
        "pad": "(0, 0)",
        "stride": "(1, 1)"
      },
      "inputs": []
    },
    {
      "op": "Convolution",
      "name": "hgfpn_stage1_HG_resdown3_conv8",
      "attrs": {
        "__lr_mult__": "1",
        "kernel": "(1, 1)",
        "no_bias": "True",
        "num_filter": "256",
        "pad": "(0, 0)",
        "stride": "(1, 1)"
      },
      "inputs": [[374, 0, 0], [375, 0, 0]]
    },
    {
      "op": "null",
      "name": "hgfpn_stage1_HG_resdown3_conv8_bn_gamma",
      "attrs": {
        "eps": "1e-05",
        "fix_gamma": "False",
        "momentum": "0.9"
      },
      "inputs": []
    },
    {
      "op": "null",
      "name": "hgfpn_stage1_HG_resdown3_conv8_bn_beta",
      "attrs": {
        "eps": "1e-05",
        "fix_gamma": "False",
        "momentum": "0.9"
      },
      "inputs": []
    },
    {
      "op": "null",
      "name": "hgfpn_stage1_HG_resdown3_conv8_bn_moving_mean",
      "attrs": {
        "__init__": "[\"zero\", {}]",
        "eps": "1e-05",
        "fix_gamma": "False",
        "momentum": "0.9"
      },
      "inputs": []
    },
    {
      "op": "null",
      "name": "hgfpn_stage1_HG_resdown3_conv8_bn_moving_var",
      "attrs": {
        "__init__": "[\"one\", {}]",
        "eps": "1e-05",
        "fix_gamma": "False",
        "momentum": "0.9"
      },
      "inputs": []
    },
    {
      "op": "BatchNorm",
      "name": "hgfpn_stage1_HG_resdown3_conv8_bn",
      "attrs": {
        "eps": "1e-05",
        "fix_gamma": "False",
        "momentum": "0.9"
      },
      "inputs": [[376, 0, 0], [377, 0, 0], [378, 0, 0], [379, 0, 1], [380, 0, 1]]
    },
    {
      "op": "add_n",
      "name": "hgfpn_stage1_HG_resdown3_add1",
      "attrs": {"num_args": "2"},
      "inputs": [[381, 0, 0], [323, 0, 0]]
    },
    {
      "op": "Pooling",
      "name": "hgfpn_stage1_HG_pldown3",
      "attrs": {
        "kernel": "(2, 2)",
        "pad": "(0, 0)",
        "pool_type": "max",
        "stride": "(2, 2)"
      },
      "inputs": [[382, 0, 0]]
    },
    {
      "op": "Activation",
      "name": "hgfpn_stage1_HG_resdown4_conv0_1_relu",
      "attrs": {"act_type": "relu"},
      "inputs": [[383, 0, 0]]
    },
    {
      "op": "null",
      "name": "hgfpn_stage1_HG_resdown4_conv0_1_weight",
      "attrs": {
        "__lr_mult__": "1",
        "kernel": "(1, 1)",
        "no_bias": "True",
        "num_filter": "64",
        "pad": "(0, 0)",
        "stride": "(1, 1)"
      },
      "inputs": []
    },
    {
      "op": "Convolution",
      "name": "hgfpn_stage1_HG_resdown4_conv0_1",
      "attrs": {
        "__lr_mult__": "1",
        "kernel": "(1, 1)",
        "no_bias": "True",
        "num_filter": "64",
        "pad": "(0, 0)",
        "stride": "(1, 1)"
      },
      "inputs": [[384, 0, 0], [385, 0, 0]]
    },
    {
      "op": "null",
      "name": "hgfpn_stage1_HG_resdown4_conv0_1_bn_gamma",
      "attrs": {
        "eps": "1e-05",
        "fix_gamma": "False",
        "momentum": "0.9"
      },
      "inputs": []
    },
    {
      "op": "null",
      "name": "hgfpn_stage1_HG_resdown4_conv0_1_bn_beta",
      "attrs": {
        "eps": "1e-05",
        "fix_gamma": "False",
        "momentum": "0.9"
      },
      "inputs": []
    },
    {
      "op": "null",
      "name": "hgfpn_stage1_HG_resdown4_conv0_1_bn_moving_mean",
      "attrs": {
        "__init__": "[\"zero\", {}]",
        "eps": "1e-05",
        "fix_gamma": "False",
        "momentum": "0.9"
      },
      "inputs": []
    },
    {
      "op": "null",
      "name": "hgfpn_stage1_HG_resdown4_conv0_1_bn_moving_var",
      "attrs": {
        "__init__": "[\"one\", {}]",
        "eps": "1e-05",
        "fix_gamma": "False",
        "momentum": "0.9"
      },
      "inputs": []
    },
    {
      "op": "BatchNorm",
      "name": "hgfpn_stage1_HG_resdown4_conv0_1_bn",
      "attrs": {
        "eps": "1e-05",
        "fix_gamma": "False",
        "momentum": "0.9"
      },
      "inputs": [[386, 0, 0], [387, 0, 0], [388, 0, 0], [389, 0, 1], [390, 0, 1]]
    },
    {
      "op": "Activation",
      "name": "hgfpn_stage1_HG_resdown4_conv0_relu",
      "attrs": {"act_type": "relu"},
      "inputs": [[391, 0, 0]]
    },
    {
      "op": "null",
      "name": "hgfpn_stage1_HG_resdown4_conv0_weight",
      "attrs": {
        "__lr_mult__": "1",
        "kernel": "(3, 3)",
        "no_bias": "True",
        "num_filter": "64",
        "pad": "(1, 1)",
        "stride": "(1, 1)"
      },
      "inputs": []
    },
    {
      "op": "Convolution",
      "name": "hgfpn_stage1_HG_resdown4_conv0",
      "attrs": {
        "__lr_mult__": "1",
        "kernel": "(3, 3)",
        "no_bias": "True",
        "num_filter": "64",
        "pad": "(1, 1)",
        "stride": "(1, 1)"
      },
      "inputs": [[392, 0, 0], [393, 0, 0]]
    },
    {
      "op": "null",
      "name": "hgfpn_stage1_HG_resdown4_conv0_bn_gamma",
      "attrs": {
        "eps": "1e-05",
        "fix_gamma": "False",
        "momentum": "0.9"
      },
      "inputs": []
    },
    {
      "op": "null",
      "name": "hgfpn_stage1_HG_resdown4_conv0_bn_beta",
      "attrs": {
        "eps": "1e-05",
        "fix_gamma": "False",
        "momentum": "0.9"
      },
      "inputs": []
    },
    {
      "op": "null",
      "name": "hgfpn_stage1_HG_resdown4_conv0_bn_moving_mean",
      "attrs": {
        "__init__": "[\"zero\", {}]",
        "eps": "1e-05",
        "fix_gamma": "False",
        "momentum": "0.9"
      },
      "inputs": []
    },
    {
      "op": "null",
      "name": "hgfpn_stage1_HG_resdown4_conv0_bn_moving_var",
      "attrs": {
        "__init__": "[\"one\", {}]",
        "eps": "1e-05",
        "fix_gamma": "False",
        "momentum": "0.9"
      },
      "inputs": []
    },
    {
      "op": "BatchNorm",
      "name": "hgfpn_stage1_HG_resdown4_conv0_bn",
      "attrs": {
        "eps": "1e-05",
        "fix_gamma": "False",
        "momentum": "0.9"
      },
      "inputs": [[394, 0, 0], [395, 0, 0], [396, 0, 0], [397, 0, 1], [398, 0, 1]]
    },
    {
      "op": "Activation",
      "name": "hgfpn_stage1_HG_resdown4_conv1_1_relu",
      "attrs": {"act_type": "relu"},
      "inputs": [[399, 0, 0]]
    },
    {
      "op": "null",
      "name": "hgfpn_stage1_HG_resdown4_conv1_1_weight",
      "attrs": {
        "__lr_mult__": "1",
        "kernel": "(1, 1)",
        "no_bias": "True",
        "num_filter": "64",
        "pad": "(0, 0)",
        "stride": "(1, 1)"
      },
      "inputs": []
    },
    {
      "op": "Convolution",
      "name": "hgfpn_stage1_HG_resdown4_conv1_1",
      "attrs": {
        "__lr_mult__": "1",
        "kernel": "(1, 1)",
        "no_bias": "True",
        "num_filter": "64",
        "pad": "(0, 0)",
        "stride": "(1, 1)"
      },
      "inputs": [[400, 0, 0], [401, 0, 0]]
    },
    {
      "op": "null",
      "name": "hgfpn_stage1_HG_resdown4_conv1_1_bn_gamma",
      "attrs": {
        "eps": "1e-05",
        "fix_gamma": "False",
        "momentum": "0.9"
      },
      "inputs": []
    },
    {
      "op": "null",
      "name": "hgfpn_stage1_HG_resdown4_conv1_1_bn_beta",
      "attrs": {
        "eps": "1e-05",
        "fix_gamma": "False",
        "momentum": "0.9"
      },
      "inputs": []
    },
    {
      "op": "null",
      "name": "hgfpn_stage1_HG_resdown4_conv1_1_bn_moving_mean",
      "attrs": {
        "__init__": "[\"zero\", {}]",
        "eps": "1e-05",
        "fix_gamma": "False",
        "momentum": "0.9"
      },
      "inputs": []
    },
    {
      "op": "null",
      "name": "hgfpn_stage1_HG_resdown4_conv1_1_bn_moving_var",
      "attrs": {
        "__init__": "[\"one\", {}]",
        "eps": "1e-05",
        "fix_gamma": "False",
        "momentum": "0.9"
      },
      "inputs": []
    },
    {
      "op": "BatchNorm",
      "name": "hgfpn_stage1_HG_resdown4_conv1_1_bn",
      "attrs": {
        "eps": "1e-05",
        "fix_gamma": "False",
        "momentum": "0.9"
      },
      "inputs": [[402, 0, 0], [403, 0, 0], [404, 0, 0], [405, 0, 1], [406, 0, 1]]
    },
    {
      "op": "Activation",
      "name": "hgfpn_stage1_HG_resdown4_conv1_3_relu",
      "attrs": {"act_type": "relu"},
      "inputs": [[407, 0, 0]]
    },
    {
      "op": "null",
      "name": "hgfpn_stage1_HG_resdown4_conv1_3_weight",
      "attrs": {
        "__lr_mult__": "1",
        "kernel": "(3, 3)",
        "no_bias": "True",
        "num_filter": "32",
        "pad": "(1, 1)",
        "stride": "(1, 1)"
      },
      "inputs": []
    },
    {
      "op": "Convolution",
      "name": "hgfpn_stage1_HG_resdown4_conv1_3",
      "attrs": {
        "__lr_mult__": "1",
        "kernel": "(3, 3)",
        "no_bias": "True",
        "num_filter": "32",
        "pad": "(1, 1)",
        "stride": "(1, 1)"
      },
      "inputs": [[408, 0, 0], [409, 0, 0]]
    },
    {
      "op": "null",
      "name": "hgfpn_stage1_HG_resdown4_conv1_3_bn_gamma",
      "attrs": {
        "eps": "1e-05",
        "fix_gamma": "False",
        "momentum": "0.9"
      },
      "inputs": []
    },
    {
      "op": "null",
      "name": "hgfpn_stage1_HG_resdown4_conv1_3_bn_beta",
      "attrs": {
        "eps": "1e-05",
        "fix_gamma": "False",
        "momentum": "0.9"
      },
      "inputs": []
    },
    {
      "op": "null",
      "name": "hgfpn_stage1_HG_resdown4_conv1_3_bn_moving_mean",
      "attrs": {
        "__init__": "[\"zero\", {}]",
        "eps": "1e-05",
        "fix_gamma": "False",
        "momentum": "0.9"
      },
      "inputs": []
    },
    {
      "op": "null",
      "name": "hgfpn_stage1_HG_resdown4_conv1_3_bn_moving_var",
      "attrs": {
        "__init__": "[\"one\", {}]",
        "eps": "1e-05",
        "fix_gamma": "False",
        "momentum": "0.9"
      },
      "inputs": []
    },
    {
      "op": "BatchNorm",
      "name": "hgfpn_stage1_HG_resdown4_conv1_3_bn",
      "attrs": {
        "eps": "1e-05",
        "fix_gamma": "False",
        "momentum": "0.9"
      },
      "inputs": [[410, 0, 0], [411, 0, 0], [412, 0, 0], [413, 0, 1], [414, 0, 1]]
    },
    {
      "op": "Concat",
      "name": "hgfpn_stage1_HG_resdown4_concat1",
      "attrs": {"num_args": "2"},
      "inputs": [[399, 0, 0], [415, 0, 0]]
    },
    {
      "op": "Activation",
      "name": "hgfpn_stage1_HG_resdown4_conv2_1_relu",
      "attrs": {"act_type": "relu"},
      "inputs": [[416, 0, 0]]
    },
    {
      "op": "null",
      "name": "hgfpn_stage1_HG_resdown4_conv2_1_weight",
      "attrs": {
        "__lr_mult__": "1",
        "kernel": "(1, 1)",
        "no_bias": "True",
        "num_filter": "64",
        "pad": "(0, 0)",
        "stride": "(1, 1)"
      },
      "inputs": []
    },
    {
      "op": "Convolution",
      "name": "hgfpn_stage1_HG_resdown4_conv2_1",
      "attrs": {
        "__lr_mult__": "1",
        "kernel": "(1, 1)",
        "no_bias": "True",
        "num_filter": "64",
        "pad": "(0, 0)",
        "stride": "(1, 1)"
      },
      "inputs": [[417, 0, 0], [418, 0, 0]]
    },
    {
      "op": "null",
      "name": "hgfpn_stage1_HG_resdown4_conv2_1_bn_gamma",
      "attrs": {
        "eps": "1e-05",
        "fix_gamma": "False",
        "momentum": "0.9"
      },
      "inputs": []
    },
    {
      "op": "null",
      "name": "hgfpn_stage1_HG_resdown4_conv2_1_bn_beta",
      "attrs": {
        "eps": "1e-05",
        "fix_gamma": "False",
        "momentum": "0.9"
      },
      "inputs": []
    },
    {
      "op": "null",
      "name": "hgfpn_stage1_HG_resdown4_conv2_1_bn_moving_mean",
      "attrs": {
        "__init__": "[\"zero\", {}]",
        "eps": "1e-05",
        "fix_gamma": "False",
        "momentum": "0.9"
      },
      "inputs": []
    },
    {
      "op": "null",
      "name": "hgfpn_stage1_HG_resdown4_conv2_1_bn_moving_var",
      "attrs": {
        "__init__": "[\"one\", {}]",
        "eps": "1e-05",
        "fix_gamma": "False",
        "momentum": "0.9"
      },
      "inputs": []
    },
    {
      "op": "BatchNorm",
      "name": "hgfpn_stage1_HG_resdown4_conv2_1_bn",
      "attrs": {
        "eps": "1e-05",
        "fix_gamma": "False",
        "momentum": "0.9"
      },
      "inputs": [[419, 0, 0], [420, 0, 0], [421, 0, 0], [422, 0, 1], [423, 0, 1]]
    },
    {
      "op": "Activation",
      "name": "hgfpn_stage1_HG_resdown4_conv2_3_relu",
      "attrs": {"act_type": "relu"},
      "inputs": [[424, 0, 0]]
    },
    {
      "op": "null",
      "name": "hgfpn_stage1_HG_resdown4_conv2_3_weight",
      "attrs": {
        "__lr_mult__": "1",
        "kernel": "(3, 3)",
        "no_bias": "True",
        "num_filter": "32",
        "pad": "(1, 1)",
        "stride": "(1, 1)"
      },
      "inputs": []
    },
    {
      "op": "Convolution",
      "name": "hgfpn_stage1_HG_resdown4_conv2_3",
      "attrs": {
        "__lr_mult__": "1",
        "kernel": "(3, 3)",
        "no_bias": "True",
        "num_filter": "32",
        "pad": "(1, 1)",
        "stride": "(1, 1)"
      },
      "inputs": [[425, 0, 0], [426, 0, 0]]
    },
    {
      "op": "null",
      "name": "hgfpn_stage1_HG_resdown4_conv2_3_bn_gamma",
      "attrs": {
        "eps": "1e-05",
        "fix_gamma": "False",
        "momentum": "0.9"
      },
      "inputs": []
    },
    {
      "op": "null",
      "name": "hgfpn_stage1_HG_resdown4_conv2_3_bn_beta",
      "attrs": {
        "eps": "1e-05",
        "fix_gamma": "False",
        "momentum": "0.9"
      },
      "inputs": []
    },
    {
      "op": "null",
      "name": "hgfpn_stage1_HG_resdown4_conv2_3_bn_moving_mean",
      "attrs": {
        "__init__": "[\"zero\", {}]",
        "eps": "1e-05",
        "fix_gamma": "False",
        "momentum": "0.9"
      },
      "inputs": []
    },
    {
      "op": "null",
      "name": "hgfpn_stage1_HG_resdown4_conv2_3_bn_moving_var",
      "attrs": {
        "__init__": "[\"one\", {}]",
        "eps": "1e-05",
        "fix_gamma": "False",
        "momentum": "0.9"
      },
      "inputs": []
    },
    {
      "op": "BatchNorm",
      "name": "hgfpn_stage1_HG_resdown4_conv2_3_bn",
      "attrs": {
        "eps": "1e-05",
        "fix_gamma": "False",
        "momentum": "0.9"
      },
      "inputs": [[427, 0, 0], [428, 0, 0], [429, 0, 0], [430, 0, 1], [431, 0, 1]]
    },
    {
      "op": "Concat",
      "name": "hgfpn_stage1_HG_resdown4_concat2",
      "attrs": {"num_args": "2"},
      "inputs": [[416, 0, 0], [432, 0, 0]]
    },
    {
      "op": "Activation",
      "name": "hgfpn_stage1_HG_resdown4_conv8_relu",
      "attrs": {"act_type": "relu"},
      "inputs": [[433, 0, 0]]
    },
    {
      "op": "null",
      "name": "hgfpn_stage1_HG_resdown4_conv8_weight",
      "attrs": {
        "__lr_mult__": "1",
        "kernel": "(1, 1)",
        "no_bias": "True",
        "num_filter": "256",
        "pad": "(0, 0)",
        "stride": "(1, 1)"
      },
      "inputs": []
    },
    {
      "op": "Convolution",
      "name": "hgfpn_stage1_HG_resdown4_conv8",
      "attrs": {
        "__lr_mult__": "1",
        "kernel": "(1, 1)",
        "no_bias": "True",
        "num_filter": "256",
        "pad": "(0, 0)",
        "stride": "(1, 1)"
      },
      "inputs": [[434, 0, 0], [435, 0, 0]]
    },
    {
      "op": "null",
      "name": "hgfpn_stage1_HG_resdown4_conv8_bn_gamma",
      "attrs": {
        "eps": "1e-05",
        "fix_gamma": "False",
        "momentum": "0.9"
      },
      "inputs": []
    },
    {
      "op": "null",
      "name": "hgfpn_stage1_HG_resdown4_conv8_bn_beta",
      "attrs": {
        "eps": "1e-05",
        "fix_gamma": "False",
        "momentum": "0.9"
      },
      "inputs": []
    },
    {
      "op": "null",
      "name": "hgfpn_stage1_HG_resdown4_conv8_bn_moving_mean",
      "attrs": {
        "__init__": "[\"zero\", {}]",
        "eps": "1e-05",
        "fix_gamma": "False",
        "momentum": "0.9"
      },
      "inputs": []
    },
    {
      "op": "null",
      "name": "hgfpn_stage1_HG_resdown4_conv8_bn_moving_var",
      "attrs": {
        "__init__": "[\"one\", {}]",
        "eps": "1e-05",
        "fix_gamma": "False",
        "momentum": "0.9"
      },
      "inputs": []
    },
    {
      "op": "BatchNorm",
      "name": "hgfpn_stage1_HG_resdown4_conv8_bn",
      "attrs": {
        "eps": "1e-05",
        "fix_gamma": "False",
        "momentum": "0.9"
      },
      "inputs": [[436, 0, 0], [437, 0, 0], [438, 0, 0], [439, 0, 1], [440, 0, 1]]
    },
    {
      "op": "add_n",
      "name": "hgfpn_stage1_HG_resdown4_add1",
      "attrs": {"num_args": "2"},
      "inputs": [[441, 0, 0], [383, 0, 0]]
    },
    {
      "op": "Pooling",
      "name": "hgfpn_stage1_HG_pldown4",
      "attrs": {
        "kernel": "(2, 2)",
        "pad": "(0, 0)",
        "pool_type": "max",
        "stride": "(2, 2)"
      },
      "inputs": [[442, 0, 0]]
    },
    {
      "op": "Activation",
      "name": "hgfpn_stage1_HG_reslowest1_conv0_1_relu",
      "attrs": {"act_type": "relu"},
      "inputs": [[443, 0, 0]]
    },
    {
      "op": "null",
      "name": "hgfpn_stage1_HG_reslowest1_conv0_1_weight",
      "attrs": {
        "__lr_mult__": "1",
        "kernel": "(1, 1)",
        "no_bias": "True",
        "num_filter": "64",
        "pad": "(0, 0)",
        "stride": "(1, 1)"
      },
      "inputs": []
    },
    {
      "op": "Convolution",
      "name": "hgfpn_stage1_HG_reslowest1_conv0_1",
      "attrs": {
        "__lr_mult__": "1",
        "kernel": "(1, 1)",
        "no_bias": "True",
        "num_filter": "64",
        "pad": "(0, 0)",
        "stride": "(1, 1)"
      },
      "inputs": [[444, 0, 0], [445, 0, 0]]
    },
    {
      "op": "null",
      "name": "hgfpn_stage1_HG_reslowest1_conv0_1_bn_gamma",
      "attrs": {
        "eps": "1e-05",
        "fix_gamma": "False",
        "momentum": "0.9"
      },
      "inputs": []
    },
    {
      "op": "null",
      "name": "hgfpn_stage1_HG_reslowest1_conv0_1_bn_beta",
      "attrs": {
        "eps": "1e-05",
        "fix_gamma": "False",
        "momentum": "0.9"
      },
      "inputs": []
    },
    {
      "op": "null",
      "name": "hgfpn_stage1_HG_reslowest1_conv0_1_bn_moving_mean",
      "attrs": {
        "__init__": "[\"zero\", {}]",
        "eps": "1e-05",
        "fix_gamma": "False",
        "momentum": "0.9"
      },
      "inputs": []
    },
    {
      "op": "null",
      "name": "hgfpn_stage1_HG_reslowest1_conv0_1_bn_moving_var",
      "attrs": {
        "__init__": "[\"one\", {}]",
        "eps": "1e-05",
        "fix_gamma": "False",
        "momentum": "0.9"
      },
      "inputs": []
    },
    {
      "op": "BatchNorm",
      "name": "hgfpn_stage1_HG_reslowest1_conv0_1_bn",
      "attrs": {
        "eps": "1e-05",
        "fix_gamma": "False",
        "momentum": "0.9"
      },
      "inputs": [[446, 0, 0], [447, 0, 0], [448, 0, 0], [449, 0, 1], [450, 0, 1]]
    },
    {
      "op": "Activation",
      "name": "hgfpn_stage1_HG_reslowest1_conv0_relu",
      "attrs": {"act_type": "relu"},
      "inputs": [[451, 0, 0]]
    },
    {
      "op": "null",
      "name": "hgfpn_stage1_HG_reslowest1_conv0_weight",
      "attrs": {
        "__lr_mult__": "1",
        "kernel": "(3, 3)",
        "no_bias": "True",
        "num_filter": "64",
        "pad": "(1, 1)",
        "stride": "(1, 1)"
      },
      "inputs": []
    },
    {
      "op": "Convolution",
      "name": "hgfpn_stage1_HG_reslowest1_conv0",
      "attrs": {
        "__lr_mult__": "1",
        "kernel": "(3, 3)",
        "no_bias": "True",
        "num_filter": "64",
        "pad": "(1, 1)",
        "stride": "(1, 1)"
      },
      "inputs": [[452, 0, 0], [453, 0, 0]]
    },
    {
      "op": "null",
      "name": "hgfpn_stage1_HG_reslowest1_conv0_bn_gamma",
      "attrs": {
        "eps": "1e-05",
        "fix_gamma": "False",
        "momentum": "0.9"
      },
      "inputs": []
    },
    {
      "op": "null",
      "name": "hgfpn_stage1_HG_reslowest1_conv0_bn_beta",
      "attrs": {
        "eps": "1e-05",
        "fix_gamma": "False",
        "momentum": "0.9"
      },
      "inputs": []
    },
    {
      "op": "null",
      "name": "hgfpn_stage1_HG_reslowest1_conv0_bn_moving_mean",
      "attrs": {
        "__init__": "[\"zero\", {}]",
        "eps": "1e-05",
        "fix_gamma": "False",
        "momentum": "0.9"
      },
      "inputs": []
    },
    {
      "op": "null",
      "name": "hgfpn_stage1_HG_reslowest1_conv0_bn_moving_var",
      "attrs": {
        "__init__": "[\"one\", {}]",
        "eps": "1e-05",
        "fix_gamma": "False",
        "momentum": "0.9"
      },
      "inputs": []
    },
    {
      "op": "BatchNorm",
      "name": "hgfpn_stage1_HG_reslowest1_conv0_bn",
      "attrs": {
        "eps": "1e-05",
        "fix_gamma": "False",
        "momentum": "0.9"
      },
      "inputs": [[454, 0, 0], [455, 0, 0], [456, 0, 0], [457, 0, 1], [458, 0, 1]]
    },
    {
      "op": "Activation",
      "name": "hgfpn_stage1_HG_reslowest1_conv1_1_relu",
      "attrs": {"act_type": "relu"},
      "inputs": [[459, 0, 0]]
    },
    {
      "op": "null",
      "name": "hgfpn_stage1_HG_reslowest1_conv1_1_weight",
      "attrs": {
        "__lr_mult__": "1",
        "kernel": "(1, 1)",
        "no_bias": "True",
        "num_filter": "64",
        "pad": "(0, 0)",
        "stride": "(1, 1)"
      },
      "inputs": []
    },
    {
      "op": "Convolution",
      "name": "hgfpn_stage1_HG_reslowest1_conv1_1",
      "attrs": {
        "__lr_mult__": "1",
        "kernel": "(1, 1)",
        "no_bias": "True",
        "num_filter": "64",
        "pad": "(0, 0)",
        "stride": "(1, 1)"
      },
      "inputs": [[460, 0, 0], [461, 0, 0]]
    },
    {
      "op": "null",
      "name": "hgfpn_stage1_HG_reslowest1_conv1_1_bn_gamma",
      "attrs": {
        "eps": "1e-05",
        "fix_gamma": "False",
        "momentum": "0.9"
      },
      "inputs": []
    },
    {
      "op": "null",
      "name": "hgfpn_stage1_HG_reslowest1_conv1_1_bn_beta",
      "attrs": {
        "eps": "1e-05",
        "fix_gamma": "False",
        "momentum": "0.9"
      },
      "inputs": []
    },
    {
      "op": "null",
      "name": "hgfpn_stage1_HG_reslowest1_conv1_1_bn_moving_mean",
      "attrs": {
        "__init__": "[\"zero\", {}]",
        "eps": "1e-05",
        "fix_gamma": "False",
        "momentum": "0.9"
      },
      "inputs": []
    },
    {
      "op": "null",
      "name": "hgfpn_stage1_HG_reslowest1_conv1_1_bn_moving_var",
      "attrs": {
        "__init__": "[\"one\", {}]",
        "eps": "1e-05",
        "fix_gamma": "False",
        "momentum": "0.9"
      },
      "inputs": []
    },
    {
      "op": "BatchNorm",
      "name": "hgfpn_stage1_HG_reslowest1_conv1_1_bn",
      "attrs": {
        "eps": "1e-05",
        "fix_gamma": "False",
        "momentum": "0.9"
      },
      "inputs": [[462, 0, 0], [463, 0, 0], [464, 0, 0], [465, 0, 1], [466, 0, 1]]
    },
    {
      "op": "Activation",
      "name": "hgfpn_stage1_HG_reslowest1_conv1_3_relu",
      "attrs": {"act_type": "relu"},
      "inputs": [[467, 0, 0]]
    },
    {
      "op": "null",
      "name": "hgfpn_stage1_HG_reslowest1_conv1_3_weight",
      "attrs": {
        "__lr_mult__": "1",
        "kernel": "(3, 3)",
        "no_bias": "True",
        "num_filter": "32",
        "pad": "(1, 1)",
        "stride": "(1, 1)"
      },
      "inputs": []
    },
    {
      "op": "Convolution",
      "name": "hgfpn_stage1_HG_reslowest1_conv1_3",
      "attrs": {
        "__lr_mult__": "1",
        "kernel": "(3, 3)",
        "no_bias": "True",
        "num_filter": "32",
        "pad": "(1, 1)",
        "stride": "(1, 1)"
      },
      "inputs": [[468, 0, 0], [469, 0, 0]]
    },
    {
      "op": "null",
      "name": "hgfpn_stage1_HG_reslowest1_conv1_3_bn_gamma",
      "attrs": {
        "eps": "1e-05",
        "fix_gamma": "False",
        "momentum": "0.9"
      },
      "inputs": []
    },
    {
      "op": "null",
      "name": "hgfpn_stage1_HG_reslowest1_conv1_3_bn_beta",
      "attrs": {
        "eps": "1e-05",
        "fix_gamma": "False",
        "momentum": "0.9"
      },
      "inputs": []
    },
    {
      "op": "null",
      "name": "hgfpn_stage1_HG_reslowest1_conv1_3_bn_moving_mean",
      "attrs": {
        "__init__": "[\"zero\", {}]",
        "eps": "1e-05",
        "fix_gamma": "False",
        "momentum": "0.9"
      },
      "inputs": []
    },
    {
      "op": "null",
      "name": "hgfpn_stage1_HG_reslowest1_conv1_3_bn_moving_var",
      "attrs": {
        "__init__": "[\"one\", {}]",
        "eps": "1e-05",
        "fix_gamma": "False",
        "momentum": "0.9"
      },
      "inputs": []
    },
    {
      "op": "BatchNorm",
      "name": "hgfpn_stage1_HG_reslowest1_conv1_3_bn",
      "attrs": {
        "eps": "1e-05",
        "fix_gamma": "False",
        "momentum": "0.9"
      },
      "inputs": [[470, 0, 0], [471, 0, 0], [472, 0, 0], [473, 0, 1], [474, 0, 1]]
    },
    {
      "op": "Concat",
      "name": "hgfpn_stage1_HG_reslowest1_concat1",
      "attrs": {"num_args": "2"},
      "inputs": [[459, 0, 0], [475, 0, 0]]
    },
    {
      "op": "Activation",
      "name": "hgfpn_stage1_HG_reslowest1_conv2_1_relu",
      "attrs": {"act_type": "relu"},
      "inputs": [[476, 0, 0]]
    },
    {
      "op": "null",
      "name": "hgfpn_stage1_HG_reslowest1_conv2_1_weight",
      "attrs": {
        "__lr_mult__": "1",
        "kernel": "(1, 1)",
        "no_bias": "True",
        "num_filter": "64",
        "pad": "(0, 0)",
        "stride": "(1, 1)"
      },
      "inputs": []
    },
    {
      "op": "Convolution",
      "name": "hgfpn_stage1_HG_reslowest1_conv2_1",
      "attrs": {
        "__lr_mult__": "1",
        "kernel": "(1, 1)",
        "no_bias": "True",
        "num_filter": "64",
        "pad": "(0, 0)",
        "stride": "(1, 1)"
      },
      "inputs": [[477, 0, 0], [478, 0, 0]]
    },
    {
      "op": "null",
      "name": "hgfpn_stage1_HG_reslowest1_conv2_1_bn_gamma",
      "attrs": {
        "eps": "1e-05",
        "fix_gamma": "False",
        "momentum": "0.9"
      },
      "inputs": []
    },
    {
      "op": "null",
      "name": "hgfpn_stage1_HG_reslowest1_conv2_1_bn_beta",
      "attrs": {
        "eps": "1e-05",
        "fix_gamma": "False",
        "momentum": "0.9"
      },
      "inputs": []
    },
    {
      "op": "null",
      "name": "hgfpn_stage1_HG_reslowest1_conv2_1_bn_moving_mean",
      "attrs": {
        "__init__": "[\"zero\", {}]",
        "eps": "1e-05",
        "fix_gamma": "False",
        "momentum": "0.9"
      },
      "inputs": []
    },
    {
      "op": "null",
      "name": "hgfpn_stage1_HG_reslowest1_conv2_1_bn_moving_var",
      "attrs": {
        "__init__": "[\"one\", {}]",
        "eps": "1e-05",
        "fix_gamma": "False",
        "momentum": "0.9"
      },
      "inputs": []
    },
    {
      "op": "BatchNorm",
      "name": "hgfpn_stage1_HG_reslowest1_conv2_1_bn",
      "attrs": {
        "eps": "1e-05",
        "fix_gamma": "False",
        "momentum": "0.9"
      },
      "inputs": [[479, 0, 0], [480, 0, 0], [481, 0, 0], [482, 0, 1], [483, 0, 1]]
    },
    {
      "op": "Activation",
      "name": "hgfpn_stage1_HG_reslowest1_conv2_3_relu",
      "attrs": {"act_type": "relu"},
      "inputs": [[484, 0, 0]]
    },
    {
      "op": "null",
      "name": "hgfpn_stage1_HG_reslowest1_conv2_3_weight",
      "attrs": {
        "__lr_mult__": "1",
        "kernel": "(3, 3)",
        "no_bias": "True",
        "num_filter": "32",
        "pad": "(1, 1)",
        "stride": "(1, 1)"
      },
      "inputs": []
    },
    {
      "op": "Convolution",
      "name": "hgfpn_stage1_HG_reslowest1_conv2_3",
      "attrs": {
        "__lr_mult__": "1",
        "kernel": "(3, 3)",
        "no_bias": "True",
        "num_filter": "32",
        "pad": "(1, 1)",
        "stride": "(1, 1)"
      },
      "inputs": [[485, 0, 0], [486, 0, 0]]
    },
    {
      "op": "null",
      "name": "hgfpn_stage1_HG_reslowest1_conv2_3_bn_gamma",
      "attrs": {
        "eps": "1e-05",
        "fix_gamma": "False",
        "momentum": "0.9"
      },
      "inputs": []
    },
    {
      "op": "null",
      "name": "hgfpn_stage1_HG_reslowest1_conv2_3_bn_beta",
      "attrs": {
        "eps": "1e-05",
        "fix_gamma": "False",
        "momentum": "0.9"
      },
      "inputs": []
    },
    {
      "op": "null",
      "name": "hgfpn_stage1_HG_reslowest1_conv2_3_bn_moving_mean",
      "attrs": {
        "__init__": "[\"zero\", {}]",
        "eps": "1e-05",
        "fix_gamma": "False",
        "momentum": "0.9"
      },
      "inputs": []
    },
    {
      "op": "null",
      "name": "hgfpn_stage1_HG_reslowest1_conv2_3_bn_moving_var",
      "attrs": {
        "__init__": "[\"one\", {}]",
        "eps": "1e-05",
        "fix_gamma": "False",
        "momentum": "0.9"
      },
      "inputs": []
    },
    {
      "op": "BatchNorm",
      "name": "hgfpn_stage1_HG_reslowest1_conv2_3_bn",
      "attrs": {
        "eps": "1e-05",
        "fix_gamma": "False",
        "momentum": "0.9"
      },
      "inputs": [[487, 0, 0], [488, 0, 0], [489, 0, 0], [490, 0, 1], [491, 0, 1]]
    },
    {
      "op": "Concat",
      "name": "hgfpn_stage1_HG_reslowest1_concat2",
      "attrs": {"num_args": "2"},
      "inputs": [[476, 0, 0], [492, 0, 0]]
    },
    {
      "op": "Activation",
      "name": "hgfpn_stage1_HG_reslowest1_conv8_relu",
      "attrs": {"act_type": "relu"},
      "inputs": [[493, 0, 0]]
    },
    {
      "op": "null",
      "name": "hgfpn_stage1_HG_reslowest1_conv8_weight",
      "attrs": {
        "__lr_mult__": "1",
        "kernel": "(1, 1)",
        "no_bias": "True",
        "num_filter": "256",
        "pad": "(0, 0)",
        "stride": "(1, 1)"
      },
      "inputs": []
    },
    {
      "op": "Convolution",
      "name": "hgfpn_stage1_HG_reslowest1_conv8",
      "attrs": {
        "__lr_mult__": "1",
        "kernel": "(1, 1)",
        "no_bias": "True",
        "num_filter": "256",
        "pad": "(0, 0)",
        "stride": "(1, 1)"
      },
      "inputs": [[494, 0, 0], [495, 0, 0]]
    },
    {
      "op": "null",
      "name": "hgfpn_stage1_HG_reslowest1_conv8_bn_gamma",
      "attrs": {
        "eps": "1e-05",
        "fix_gamma": "False",
        "momentum": "0.9"
      },
      "inputs": []
    },
    {
      "op": "null",
      "name": "hgfpn_stage1_HG_reslowest1_conv8_bn_beta",
      "attrs": {
        "eps": "1e-05",
        "fix_gamma": "False",
        "momentum": "0.9"
      },
      "inputs": []
    },
    {
      "op": "null",
      "name": "hgfpn_stage1_HG_reslowest1_conv8_bn_moving_mean",
      "attrs": {
        "__init__": "[\"zero\", {}]",
        "eps": "1e-05",
        "fix_gamma": "False",
        "momentum": "0.9"
      },
      "inputs": []
    },
    {
      "op": "null",
      "name": "hgfpn_stage1_HG_reslowest1_conv8_bn_moving_var",
      "attrs": {
        "__init__": "[\"one\", {}]",
        "eps": "1e-05",
        "fix_gamma": "False",
        "momentum": "0.9"
      },
      "inputs": []
    },
    {
      "op": "BatchNorm",
      "name": "hgfpn_stage1_HG_reslowest1_conv8_bn",
      "attrs": {
        "eps": "1e-05",
        "fix_gamma": "False",
        "momentum": "0.9"
      },
      "inputs": [[496, 0, 0], [497, 0, 0], [498, 0, 0], [499, 0, 1], [500, 0, 1]]
    },
    {
      "op": "add_n",
      "name": "hgfpn_stage1_HG_reslowest1_add1",
      "attrs": {"num_args": "2"},
      "inputs": [[501, 0, 0], [443, 0, 0]]
    },
    {
      "op": "Activation",
      "name": "hgfpn_stage1_HG_reslowest_conv0_1_relu",
      "attrs": {"act_type": "relu"},
      "inputs": [[502, 0, 0]]
    },
    {
      "op": "null",
      "name": "hgfpn_stage1_HG_reslowest_conv0_1_weight",
      "attrs": {
        "__lr_mult__": "1",
        "kernel": "(1, 1)",
        "no_bias": "True",
        "num_filter": "64",
        "pad": "(0, 0)",
        "stride": "(1, 1)"
      },
      "inputs": []
    },
    {
      "op": "Convolution",
      "name": "hgfpn_stage1_HG_reslowest_conv0_1",
      "attrs": {
        "__lr_mult__": "1",
        "kernel": "(1, 1)",
        "no_bias": "True",
        "num_filter": "64",
        "pad": "(0, 0)",
        "stride": "(1, 1)"
      },
      "inputs": [[503, 0, 0], [504, 0, 0]]
    },
    {
      "op": "null",
      "name": "hgfpn_stage1_HG_reslowest_conv0_1_bn_gamma",
      "attrs": {
        "eps": "1e-05",
        "fix_gamma": "False",
        "momentum": "0.9"
      },
      "inputs": []
    },
    {
      "op": "null",
      "name": "hgfpn_stage1_HG_reslowest_conv0_1_bn_beta",
      "attrs": {
        "eps": "1e-05",
        "fix_gamma": "False",
        "momentum": "0.9"
      },
      "inputs": []
    },
    {
      "op": "null",
      "name": "hgfpn_stage1_HG_reslowest_conv0_1_bn_moving_mean",
      "attrs": {
        "__init__": "[\"zero\", {}]",
        "eps": "1e-05",
        "fix_gamma": "False",
        "momentum": "0.9"
      },
      "inputs": []
    },
    {
      "op": "null",
      "name": "hgfpn_stage1_HG_reslowest_conv0_1_bn_moving_var",
      "attrs": {
        "__init__": "[\"one\", {}]",
        "eps": "1e-05",
        "fix_gamma": "False",
        "momentum": "0.9"
      },
      "inputs": []
    },
    {
      "op": "BatchNorm",
      "name": "hgfpn_stage1_HG_reslowest_conv0_1_bn",
      "attrs": {
        "eps": "1e-05",
        "fix_gamma": "False",
        "momentum": "0.9"
      },
      "inputs": [[505, 0, 0], [506, 0, 0], [507, 0, 0], [508, 0, 1], [509, 0, 1]]
    },
    {
      "op": "Activation",
      "name": "hgfpn_stage1_HG_reslowest_conv0_relu",
      "attrs": {"act_type": "relu"},
      "inputs": [[510, 0, 0]]
    },
    {
      "op": "null",
      "name": "hgfpn_stage1_HG_reslowest_conv0_weight",
      "attrs": {
        "__lr_mult__": "1",
        "kernel": "(3, 3)",
        "no_bias": "True",
        "num_filter": "64",
        "pad": "(1, 1)",
        "stride": "(1, 1)"
      },
      "inputs": []
    },
    {
      "op": "Convolution",
      "name": "hgfpn_stage1_HG_reslowest_conv0",
      "attrs": {
        "__lr_mult__": "1",
        "kernel": "(3, 3)",
        "no_bias": "True",
        "num_filter": "64",
        "pad": "(1, 1)",
        "stride": "(1, 1)"
      },
      "inputs": [[511, 0, 0], [512, 0, 0]]
    },
    {
      "op": "null",
      "name": "hgfpn_stage1_HG_reslowest_conv0_bn_gamma",
      "attrs": {
        "eps": "1e-05",
        "fix_gamma": "False",
        "momentum": "0.9"
      },
      "inputs": []
    },
    {
      "op": "null",
      "name": "hgfpn_stage1_HG_reslowest_conv0_bn_beta",
      "attrs": {
        "eps": "1e-05",
        "fix_gamma": "False",
        "momentum": "0.9"
      },
      "inputs": []
    },
    {
      "op": "null",
      "name": "hgfpn_stage1_HG_reslowest_conv0_bn_moving_mean",
      "attrs": {
        "__init__": "[\"zero\", {}]",
        "eps": "1e-05",
        "fix_gamma": "False",
        "momentum": "0.9"
      },
      "inputs": []
    },
    {
      "op": "null",
      "name": "hgfpn_stage1_HG_reslowest_conv0_bn_moving_var",
      "attrs": {
        "__init__": "[\"one\", {}]",
        "eps": "1e-05",
        "fix_gamma": "False",
        "momentum": "0.9"
      },
      "inputs": []
    },
    {
      "op": "BatchNorm",
      "name": "hgfpn_stage1_HG_reslowest_conv0_bn",
      "attrs": {
        "eps": "1e-05",
        "fix_gamma": "False",
        "momentum": "0.9"
      },
      "inputs": [[513, 0, 0], [514, 0, 0], [515, 0, 0], [516, 0, 1], [517, 0, 1]]
    },
    {
      "op": "Activation",
      "name": "hgfpn_stage1_HG_reslowest_conv1_1_relu",
      "attrs": {"act_type": "relu"},
      "inputs": [[518, 0, 0]]
    },
    {
      "op": "null",
      "name": "hgfpn_stage1_HG_reslowest_conv1_1_weight",
      "attrs": {
        "__lr_mult__": "1",
        "kernel": "(1, 1)",
        "no_bias": "True",
        "num_filter": "64",
        "pad": "(0, 0)",
        "stride": "(1, 1)"
      },
      "inputs": []
    },
    {
      "op": "Convolution",
      "name": "hgfpn_stage1_HG_reslowest_conv1_1",
      "attrs": {
        "__lr_mult__": "1",
        "kernel": "(1, 1)",
        "no_bias": "True",
        "num_filter": "64",
        "pad": "(0, 0)",
        "stride": "(1, 1)"
      },
      "inputs": [[519, 0, 0], [520, 0, 0]]
    },
    {
      "op": "null",
      "name": "hgfpn_stage1_HG_reslowest_conv1_1_bn_gamma",
      "attrs": {
        "eps": "1e-05",
        "fix_gamma": "False",
        "momentum": "0.9"
      },
      "inputs": []
    },
    {
      "op": "null",
      "name": "hgfpn_stage1_HG_reslowest_conv1_1_bn_beta",
      "attrs": {
        "eps": "1e-05",
        "fix_gamma": "False",
        "momentum": "0.9"
      },
      "inputs": []
    },
    {
      "op": "null",
      "name": "hgfpn_stage1_HG_reslowest_conv1_1_bn_moving_mean",
      "attrs": {
        "__init__": "[\"zero\", {}]",
        "eps": "1e-05",
        "fix_gamma": "False",
        "momentum": "0.9"
      },
      "inputs": []
    },
    {
      "op": "null",
      "name": "hgfpn_stage1_HG_reslowest_conv1_1_bn_moving_var",
      "attrs": {
        "__init__": "[\"one\", {}]",
        "eps": "1e-05",
        "fix_gamma": "False",
        "momentum": "0.9"
      },
      "inputs": []
    },
    {
      "op": "BatchNorm",
      "name": "hgfpn_stage1_HG_reslowest_conv1_1_bn",
      "attrs": {
        "eps": "1e-05",
        "fix_gamma": "False",
        "momentum": "0.9"
      },
      "inputs": [[521, 0, 0], [522, 0, 0], [523, 0, 0], [524, 0, 1], [525, 0, 1]]
    },
    {
      "op": "Activation",
      "name": "hgfpn_stage1_HG_reslowest_conv1_3_relu",
      "attrs": {"act_type": "relu"},
      "inputs": [[526, 0, 0]]
    },
    {
      "op": "null",
      "name": "hgfpn_stage1_HG_reslowest_conv1_3_weight",
      "attrs": {
        "__lr_mult__": "1",
        "kernel": "(3, 3)",
        "no_bias": "True",
        "num_filter": "32",
        "pad": "(1, 1)",
        "stride": "(1, 1)"
      },
      "inputs": []
    },
    {
      "op": "Convolution",
      "name": "hgfpn_stage1_HG_reslowest_conv1_3",
      "attrs": {
        "__lr_mult__": "1",
        "kernel": "(3, 3)",
        "no_bias": "True",
        "num_filter": "32",
        "pad": "(1, 1)",
        "stride": "(1, 1)"
      },
      "inputs": [[527, 0, 0], [528, 0, 0]]
    },
    {
      "op": "null",
      "name": "hgfpn_stage1_HG_reslowest_conv1_3_bn_gamma",
      "attrs": {
        "eps": "1e-05",
        "fix_gamma": "False",
        "momentum": "0.9"
      },
      "inputs": []
    },
    {
      "op": "null",
      "name": "hgfpn_stage1_HG_reslowest_conv1_3_bn_beta",
      "attrs": {
        "eps": "1e-05",
        "fix_gamma": "False",
        "momentum": "0.9"
      },
      "inputs": []
    },
    {
      "op": "null",
      "name": "hgfpn_stage1_HG_reslowest_conv1_3_bn_moving_mean",
      "attrs": {
        "__init__": "[\"zero\", {}]",
        "eps": "1e-05",
        "fix_gamma": "False",
        "momentum": "0.9"
      },
      "inputs": []
    },
    {
      "op": "null",
      "name": "hgfpn_stage1_HG_reslowest_conv1_3_bn_moving_var",
      "attrs": {
        "__init__": "[\"one\", {}]",
        "eps": "1e-05",
        "fix_gamma": "False",
        "momentum": "0.9"
      },
      "inputs": []
    },
    {
      "op": "BatchNorm",
      "name": "hgfpn_stage1_HG_reslowest_conv1_3_bn",
      "attrs": {
        "eps": "1e-05",
        "fix_gamma": "False",
        "momentum": "0.9"
      },
      "inputs": [[529, 0, 0], [530, 0, 0], [531, 0, 0], [532, 0, 1], [533, 0, 1]]
    },
    {
      "op": "Concat",
      "name": "hgfpn_stage1_HG_reslowest_concat1",
      "attrs": {"num_args": "2"},
      "inputs": [[518, 0, 0], [534, 0, 0]]
    },
    {
      "op": "Activation",
      "name": "hgfpn_stage1_HG_reslowest_conv2_1_relu",
      "attrs": {"act_type": "relu"},
      "inputs": [[535, 0, 0]]
    },
    {
      "op": "null",
      "name": "hgfpn_stage1_HG_reslowest_conv2_1_weight",
      "attrs": {
        "__lr_mult__": "1",
        "kernel": "(1, 1)",
        "no_bias": "True",
        "num_filter": "64",
        "pad": "(0, 0)",
        "stride": "(1, 1)"
      },
      "inputs": []
    },
    {
      "op": "Convolution",
      "name": "hgfpn_stage1_HG_reslowest_conv2_1",
      "attrs": {
        "__lr_mult__": "1",
        "kernel": "(1, 1)",
        "no_bias": "True",
        "num_filter": "64",
        "pad": "(0, 0)",
        "stride": "(1, 1)"
      },
      "inputs": [[536, 0, 0], [537, 0, 0]]
    },
    {
      "op": "null",
      "name": "hgfpn_stage1_HG_reslowest_conv2_1_bn_gamma",
      "attrs": {
        "eps": "1e-05",
        "fix_gamma": "False",
        "momentum": "0.9"
      },
      "inputs": []
    },
    {
      "op": "null",
      "name": "hgfpn_stage1_HG_reslowest_conv2_1_bn_beta",
      "attrs": {
        "eps": "1e-05",
        "fix_gamma": "False",
        "momentum": "0.9"
      },
      "inputs": []
    },
    {
      "op": "null",
      "name": "hgfpn_stage1_HG_reslowest_conv2_1_bn_moving_mean",
      "attrs": {
        "__init__": "[\"zero\", {}]",
        "eps": "1e-05",
        "fix_gamma": "False",
        "momentum": "0.9"
      },
      "inputs": []
    },
    {
      "op": "null",
      "name": "hgfpn_stage1_HG_reslowest_conv2_1_bn_moving_var",
      "attrs": {
        "__init__": "[\"one\", {}]",
        "eps": "1e-05",
        "fix_gamma": "False",
        "momentum": "0.9"
      },
      "inputs": []
    },
    {
      "op": "BatchNorm",
      "name": "hgfpn_stage1_HG_reslowest_conv2_1_bn",
      "attrs": {
        "eps": "1e-05",
        "fix_gamma": "False",
        "momentum": "0.9"
      },
      "inputs": [[538, 0, 0], [539, 0, 0], [540, 0, 0], [541, 0, 1], [542, 0, 1]]
    },
    {
      "op": "Activation",
      "name": "hgfpn_stage1_HG_reslowest_conv2_3_relu",
      "attrs": {"act_type": "relu"},
      "inputs": [[543, 0, 0]]
    },
    {
      "op": "null",
      "name": "hgfpn_stage1_HG_reslowest_conv2_3_weight",
      "attrs": {
        "__lr_mult__": "1",
        "kernel": "(3, 3)",
        "no_bias": "True",
        "num_filter": "32",
        "pad": "(1, 1)",
        "stride": "(1, 1)"
      },
      "inputs": []
    },
    {
      "op": "Convolution",
      "name": "hgfpn_stage1_HG_reslowest_conv2_3",
      "attrs": {
        "__lr_mult__": "1",
        "kernel": "(3, 3)",
        "no_bias": "True",
        "num_filter": "32",
        "pad": "(1, 1)",
        "stride": "(1, 1)"
      },
      "inputs": [[544, 0, 0], [545, 0, 0]]
    },
    {
      "op": "null",
      "name": "hgfpn_stage1_HG_reslowest_conv2_3_bn_gamma",
      "attrs": {
        "eps": "1e-05",
        "fix_gamma": "False",
        "momentum": "0.9"
      },
      "inputs": []
    },
    {
      "op": "null",
      "name": "hgfpn_stage1_HG_reslowest_conv2_3_bn_beta",
      "attrs": {
        "eps": "1e-05",
        "fix_gamma": "False",
        "momentum": "0.9"
      },
      "inputs": []
    },
    {
      "op": "null",
      "name": "hgfpn_stage1_HG_reslowest_conv2_3_bn_moving_mean",
      "attrs": {
        "__init__": "[\"zero\", {}]",
        "eps": "1e-05",
        "fix_gamma": "False",
        "momentum": "0.9"
      },
      "inputs": []
    },
    {
      "op": "null",
      "name": "hgfpn_stage1_HG_reslowest_conv2_3_bn_moving_var",
      "attrs": {
        "__init__": "[\"one\", {}]",
        "eps": "1e-05",
        "fix_gamma": "False",
        "momentum": "0.9"
      },
      "inputs": []
    },
    {
      "op": "BatchNorm",
      "name": "hgfpn_stage1_HG_reslowest_conv2_3_bn",
      "attrs": {
        "eps": "1e-05",
        "fix_gamma": "False",
        "momentum": "0.9"
      },
      "inputs": [[546, 0, 0], [547, 0, 0], [548, 0, 0], [549, 0, 1], [550, 0, 1]]
    },
    {
      "op": "Concat",
      "name": "hgfpn_stage1_HG_reslowest_concat2",
      "attrs": {"num_args": "2"},
      "inputs": [[535, 0, 0], [551, 0, 0]]
    },
    {
      "op": "Activation",
      "name": "hgfpn_stage1_HG_reslowest_conv8_relu",
      "attrs": {"act_type": "relu"},
      "inputs": [[552, 0, 0]]
    },
    {
      "op": "null",
      "name": "hgfpn_stage1_HG_reslowest_conv8_weight",
      "attrs": {
        "__lr_mult__": "1",
        "kernel": "(1, 1)",
        "no_bias": "True",
        "num_filter": "256",
        "pad": "(0, 0)",
        "stride": "(1, 1)"
      },
      "inputs": []
    },
    {
      "op": "Convolution",
      "name": "hgfpn_stage1_HG_reslowest_conv8",
      "attrs": {
        "__lr_mult__": "1",
        "kernel": "(1, 1)",
        "no_bias": "True",
        "num_filter": "256",
        "pad": "(0, 0)",
        "stride": "(1, 1)"
      },
      "inputs": [[553, 0, 0], [554, 0, 0]]
    },
    {
      "op": "null",
      "name": "hgfpn_stage1_HG_reslowest_conv8_bn_gamma",
      "attrs": {
        "eps": "1e-05",
        "fix_gamma": "False",
        "momentum": "0.9"
      },
      "inputs": []
    },
    {
      "op": "null",
      "name": "hgfpn_stage1_HG_reslowest_conv8_bn_beta",
      "attrs": {
        "eps": "1e-05",
        "fix_gamma": "False",
        "momentum": "0.9"
      },
      "inputs": []
    },
    {
      "op": "null",
      "name": "hgfpn_stage1_HG_reslowest_conv8_bn_moving_mean",
      "attrs": {
        "__init__": "[\"zero\", {}]",
        "eps": "1e-05",
        "fix_gamma": "False",
        "momentum": "0.9"
      },
      "inputs": []
    },
    {
      "op": "null",
      "name": "hgfpn_stage1_HG_reslowest_conv8_bn_moving_var",
      "attrs": {
        "__init__": "[\"one\", {}]",
        "eps": "1e-05",
        "fix_gamma": "False",
        "momentum": "0.9"
      },
      "inputs": []
    },
    {
      "op": "BatchNorm",
      "name": "hgfpn_stage1_HG_reslowest_conv8_bn",
      "attrs": {
        "eps": "1e-05",
        "fix_gamma": "False",
        "momentum": "0.9"
      },
      "inputs": [[555, 0, 0], [556, 0, 0], [557, 0, 0], [558, 0, 1], [559, 0, 1]]
    },
    {
      "op": "add_n",
      "name": "hgfpn_stage1_HG_reslowest_add1",
      "attrs": {"num_args": "2"},
      "inputs": [[560, 0, 0], [502, 0, 0]]
    },
    {
      "op": "Activation",
      "name": "hgfpn_stage1_HG_reslowest2_conv0_1_relu",
      "attrs": {"act_type": "relu"},
      "inputs": [[561, 0, 0]]
    },
    {
      "op": "null",
      "name": "hgfpn_stage1_HG_reslowest2_conv0_1_weight",
      "attrs": {
        "__lr_mult__": "1",
        "kernel": "(1, 1)",
        "no_bias": "True",
        "num_filter": "64",
        "pad": "(0, 0)",
        "stride": "(1, 1)"
      },
      "inputs": []
    },
    {
      "op": "Convolution",
      "name": "hgfpn_stage1_HG_reslowest2_conv0_1",
      "attrs": {
        "__lr_mult__": "1",
        "kernel": "(1, 1)",
        "no_bias": "True",
        "num_filter": "64",
        "pad": "(0, 0)",
        "stride": "(1, 1)"
      },
      "inputs": [[562, 0, 0], [563, 0, 0]]
    },
    {
      "op": "null",
      "name": "hgfpn_stage1_HG_reslowest2_conv0_1_bn_gamma",
      "attrs": {
        "eps": "1e-05",
        "fix_gamma": "False",
        "momentum": "0.9"
      },
      "inputs": []
    },
    {
      "op": "null",
      "name": "hgfpn_stage1_HG_reslowest2_conv0_1_bn_beta",
      "attrs": {
        "eps": "1e-05",
        "fix_gamma": "False",
        "momentum": "0.9"
      },
      "inputs": []
    },
    {
      "op": "null",
      "name": "hgfpn_stage1_HG_reslowest2_conv0_1_bn_moving_mean",
      "attrs": {
        "__init__": "[\"zero\", {}]",
        "eps": "1e-05",
        "fix_gamma": "False",
        "momentum": "0.9"
      },
      "inputs": []
    },
    {
      "op": "null",
      "name": "hgfpn_stage1_HG_reslowest2_conv0_1_bn_moving_var",
      "attrs": {
        "__init__": "[\"one\", {}]",
        "eps": "1e-05",
        "fix_gamma": "False",
        "momentum": "0.9"
      },
      "inputs": []
    },
    {
      "op": "BatchNorm",
      "name": "hgfpn_stage1_HG_reslowest2_conv0_1_bn",
      "attrs": {
        "eps": "1e-05",
        "fix_gamma": "False",
        "momentum": "0.9"
      },
      "inputs": [[564, 0, 0], [565, 0, 0], [566, 0, 0], [567, 0, 1], [568, 0, 1]]
    },
    {
      "op": "Activation",
      "name": "hgfpn_stage1_HG_reslowest2_conv0_relu",
      "attrs": {"act_type": "relu"},
      "inputs": [[569, 0, 0]]
    },
    {
      "op": "null",
      "name": "hgfpn_stage1_HG_reslowest2_conv0_weight",
      "attrs": {
        "__lr_mult__": "1",
        "kernel": "(3, 3)",
        "no_bias": "True",
        "num_filter": "64",
        "pad": "(1, 1)",
        "stride": "(1, 1)"
      },
      "inputs": []
    },
    {
      "op": "Convolution",
      "name": "hgfpn_stage1_HG_reslowest2_conv0",
      "attrs": {
        "__lr_mult__": "1",
        "kernel": "(3, 3)",
        "no_bias": "True",
        "num_filter": "64",
        "pad": "(1, 1)",
        "stride": "(1, 1)"
      },
      "inputs": [[570, 0, 0], [571, 0, 0]]
    },
    {
      "op": "null",
      "name": "hgfpn_stage1_HG_reslowest2_conv0_bn_gamma",
      "attrs": {
        "eps": "1e-05",
        "fix_gamma": "False",
        "momentum": "0.9"
      },
      "inputs": []
    },
    {
      "op": "null",
      "name": "hgfpn_stage1_HG_reslowest2_conv0_bn_beta",
      "attrs": {
        "eps": "1e-05",
        "fix_gamma": "False",
        "momentum": "0.9"
      },
      "inputs": []
    },
    {
      "op": "null",
      "name": "hgfpn_stage1_HG_reslowest2_conv0_bn_moving_mean",
      "attrs": {
        "__init__": "[\"zero\", {}]",
        "eps": "1e-05",
        "fix_gamma": "False",
        "momentum": "0.9"
      },
      "inputs": []
    },
    {
      "op": "null",
      "name": "hgfpn_stage1_HG_reslowest2_conv0_bn_moving_var",
      "attrs": {
        "__init__": "[\"one\", {}]",
        "eps": "1e-05",
        "fix_gamma": "False",
        "momentum": "0.9"
      },
      "inputs": []
    },
    {
      "op": "BatchNorm",
      "name": "hgfpn_stage1_HG_reslowest2_conv0_bn",
      "attrs": {
        "eps": "1e-05",
        "fix_gamma": "False",
        "momentum": "0.9"
      },
      "inputs": [[572, 0, 0], [573, 0, 0], [574, 0, 0], [575, 0, 1], [576, 0, 1]]
    },
    {
      "op": "Activation",
      "name": "hgfpn_stage1_HG_reslowest2_conv1_1_relu",
      "attrs": {"act_type": "relu"},
      "inputs": [[577, 0, 0]]
    },
    {
      "op": "null",
      "name": "hgfpn_stage1_HG_reslowest2_conv1_1_weight",
      "attrs": {
        "__lr_mult__": "1",
        "kernel": "(1, 1)",
        "no_bias": "True",
        "num_filter": "64",
        "pad": "(0, 0)",
        "stride": "(1, 1)"
      },
      "inputs": []
    },
    {
      "op": "Convolution",
      "name": "hgfpn_stage1_HG_reslowest2_conv1_1",
      "attrs": {
        "__lr_mult__": "1",
        "kernel": "(1, 1)",
        "no_bias": "True",
…
    385,
    386,
    389,
    390,
    391,
    392,
    393,
    394,
    395,
    396,
    397,
    400,
    401,
    403,
    404,
    405,
    406,
    407,
    408,
    409,
    410,
    413,
    414,
    415,
    416,
    417,
    418,
    419,
    420,
    423,
    424,
    425,
    426,
    427,
    428,
    429,
    430,
    433,
    434,
    435,
    436,
    437,
    438,
    439,
    440,
    443,
    444,
    445,
    446,
    447,
    448,
    449,
    450,
    451,
    454,
    455,
    456,
    457,
    458,
    459,
    460,
    461,
    464,
    465,
    466,
    467,
    468,
    469,
    470,
    471,
    472,
    475,
    476,
    478,
    479,
    480,
    481,
    482,
    483,
    484,
    485,
    488,
    489,
    490,
    491,
    492,
    493,
    494,
    495,
    498,
    499,
    500,
    501,
    502,
    503,
    504,
    505,
    508,
    509,
    510,
    511,
    512,
    513,
    514,
    515,
    518,
    519,
    520,
    521,
    522,
    523,
    524,
    525,
    526,
    529,
    530,
    531,
    532,
    533,
    534,
    535,
    536,
    539,
    540,
    541,
    542,
    543,
    544,
    545,
    546,
    547,
    550,
    551,
    553,
    554,
    555,
    556,
    557,
    558,
    559,
    560,
    563,
    564,
    565,
    566,
    567,
    568,
    569,
    570,
    573,
    574,
    575,
    576,
    577,
    578,
    579,
    580,
    583,
    584,
    585,
    586,
    587,
    588,
    589,
    590,
    593,
    594,
    595,
    596,
    597,
    598,
    599,
    600,
    601,
    604,
    605,
    606,
    607,
    608,
    609,
    610,
    611,
    614,
    615,
    616,
    617,
    618,
    619,
    620,
    621,
    622,
    625,
    626,
    627,
    628,
    629,
    630,
    631,
    632,
    633,
    636,
    637,
    638,
    639,
    640,
    641,
    642,
    643,
    646,
    647,
    648,
    649,
    650,
    651,
    652,
    653,
    656,
    657,
    658,
    659,
    660,
    661,
    662,
    663,
    666,
    667,
    668,
    669,
    670,
    671,
    672,
    673,
    674,
    677,
    678,
    679,
    680,
    681,
    682,
    683,
    684,
    687,
    688,
    689,
    690,
    691,
    692,
    693,
    694,
    695,
    698,
    699,
    700,
    701,
    702,
    703,
    704,
    705,
    706,
    709,
    710,
    711,
    712,
    713,
    714,
    715,
    716,
    719,
    720,
    721,
    722,
    723,
    724,
    725,
    726,
    729,
    730,
    731,
    732,
    733,
    734,
    735,
    736,
    739,
    740,
    741,
    742,
    743,
    744,
    745,
    746,
    747,
    750,
    751,
    752,
    753,
    754,
    755,
    756,
    757,
    760,
    761,
    762,
    763,
    764,
    765,
    766,
    767,
    768,
    771,
    772,
    773,
    774,
    775,
    776,
    777,
    778,
    779,
    780,
    781,
    782,
    785,
    786,
    787,
    788,
    789,
    790,
    791,
    792,
    793,
    794,
    797,
    798,
    799,
    800,
    801,
    802,
    803,
    804,
    807,
    808,
    809,
    810,
    811,
    812,
    813,
    814,
    817,
    818,
    819,
    820,
    821,
    822,
    823,
    824,
    827,
    828,
    829,
    830,
    831,
    832,
    833,
    834,
    835,
    838,
    839,
    840,
    841,
    842,
    843,
    844,
    845,
    848,
    849,
    850,
    851,
    852,
    853,
    854,
    855,
    856,
    859,
    860,
    861,
    862,
    863,
    864,
    865,
    866,
    867,
    868,
    869,
    870,
    873,
    874,
    875,
    876,
    877,
    878,
    879,
    880,
    883,
    884,
    885,
    886,
    887,
    888,
    889,
    890,
    893,
    894,
    895,
    896,
    897,
    898,
    899,
    900,
    903,
    904,
    905,
    906,
    907,
    908,
    909,
    910,
    911,
    914,
    915,
    916,
    917,
    918,
    919,
    920,
    921,
    924,
    925,
    926,
    927,
    928,
    929,
    930,
    931,
    932,
    935,
    936,
    937,
    938,
    939,
    940,
    941,
    942,
    943,
    944,
    947,
    948,
    949,
    950,
    951,
    952,
    953,
    954,
    957,
    958,
    959,
    960,
    961,
    962,
    963,
    964,
    967,
    968,
    969,
    970,
    971,
    972,
    973,
    974,
    977,
    978,
    979,
    980,
    981,
    982,
    983,
    984,
    985,
    988,
    989,
    990,
    991,
    992,
    993,
    994,
    995,
    998,
    999,
    1000,
    1001,
    1002,
    1003,
    1004,
    1005,
    1006,
    1009,
    1010,
    1011,
    1012,
    1013,
    1014,
    1015,
    1016,
    1017,
    1018,
    1021,
    1022,
    1023,
    1024,
    1025,
    1026,
    1027,
    1028,
    1031,
    1032,
    1033,
    1034,
    1035,
    1036,
    1037,
    1038,
    1041,
    1042,
    1043,
    1044,
    1045,
    1046,
    1047,
    1048,
    1051,
    1052,
    1053,
    1054,
    1055,
    1056,
    1057,
    1058,
    1059,
    1062,
    1063,
    1064,
    1065,
    1066,
    1067,
    1068,
    1069,
    1072,
    1073,
    1074,
    1075,
    1076,
    1077,
    1078,
    1079,
    1080,
    1083,
    1084,
    1085,
    1086,
    1087,
    1088,
    1089,
    1090,
    1091,
    1092,
    1093,
    1094,
    1097,
    1098,
    1099,
    1100,
    1101,
    1102,
    1103,
    1104,
    1107,
    1108,
    1109,
    1110,
    1111,
    1112,
    1113,
    1114,
    1117,
    1118,
    1119,
    1120,
    1121,
    1122,
    1123,
    1124,
    1127,
    1128,
    1129,
    1130,
    1131,
    1132,
    1133,
    1134,
    1135,
    1138,
    1139,
    1140,
    1141,
    1142,
    1143,
    1144,
    1145,
    1148,
    1149,
    1150,
    1151,
    1152,
    1153,
    1154,
    1155,
    1156,
    1159,
    1160,
    1161,
    1162,
    1163,
    1164,
    1165,
    1166,
    1167,
    1168,
    1171,
    1172,
    1173,
    1174,
    1175,
    1176,
    1177,
    1178,
    1181,
    1182,
    1183,
    1184,
    1185,
    1186,
    1187,
    1188,
    1191,
    1192,
    1193,
    1194,
    1195,
    1196,
    1197,
    1198,
    1201,
    1202,
    1203,
    1204,
    1205,
    1206,
    1207,
    1208,
    1209,
    1212,
    1213,
    1214,
    1215,
    1216,
    1217,
    1218,
    1219,
    1222,
    1223,
    1224,
    1225,
    1226,
    1227,
    1228,
    1229,
    1230,
    1233,
    1234,
    1235,
    1236,
    1237,
    1238,
    1239,
    1240,
    1241,
    1242,
    1245,
    1246,
    1247,
    1248,
    1249,
    1250,
    1251,
    1252,
    1255,
    1256,
    1257,
    1258,
    1259,
    1260,
    1261,
    1262,
    1265,
    1266,
    1267,
    1268,
    1269,
    1270,
    1271,
    1272,
    1275,
    1276,
    1277,
    1278,
    1279,
    1280,
    1281,
    1282,
    1283,
    1286,
    1287,
    1288,
    1289,
    1290,
    1291,
    1292,
    1293,
    1296,
    1297,
    1298,
    1299,
    1300,
    1301,
    1302,
    1303,
    1304,
    1307,
    1308,
    1309,
    1310,
    1311,
    1312,
    1313,
    1314,
    1315,
    1316,
    1317,
    1318,
    1321,
    1322,
    1323,
    1324,
    1325,
    1326,
    1327,
    1328,
    1331,
    1332,
    1333,
    1334,
    1335,
    1336,
    1337,
    1338,
    1341,
    1342,
    1343,
    1344,
    1345,
    1346,
    1347,
    1348,
    1351,
    1352,
    1353,
    1354,
    1355,
    1356,
    1357,
    1358,
    1359,
    1362,
    1363,
    1364,
    1365,
    1366,
    1367,
    1368,
    1369,
    1372,
    1373,
    1374,
    1375,
    1376,
    1377,
    1378,
    1379,
    1380,
    1383,
    1384,
    1385,
    1386,
    1387,
    1388,
    1389,
    1390,
    1391,
    1392,
    1395,
    1396,
    1397,
    1398,
    1399,
    1400,
    1401,
    1402,
    1405,
    1406,
    1407,
    1408,
    1409,
    1410,
    1411,
    1412,
    1415,
    1416,
    1417,
    1418,
    1419,
    1420,
    1421,
    1422,
    1425,
    1426,
    1427,
    1428,
    1429,
    1430,
    1431,
    1432,
    1433,
    1436,
    1437,
    1438,
    1439,
    1440,
    1441,
    1442,
    1443,
    1446,
    1447,
    1448,
    1449,
    1450,
    1451,
    1452,
    1453,
    1454,
    1457,
    1458,
    1459,
    1460,
    1461,
    1462,
    1463,
    1464,
    1465,
    1466,
    1469,
    1470,
    1471,
    1472,
    1473,
    1474,
    1475,
    1476,
    1479,
    1480,
    1481,
    1482,
    1483,
    1484,
    1485,
    1486,
    1489,
    1490,
    1491,
    1492,
    1493,
    1494,
    1495,
    1496,
    1499,
    1500,
    1501,
    1502,
    1503,
    1504,
    1505,
    1506,
    1507,
    1510,
    1511,
    1512,
    1513,
    1514,
    1515,
    1516,
    1517,
    1520,
    1521,
    1522,
    1523,
    1524,
    1525,
    1526,
    1527,
    1528,
    1531,
    1532,
    1533,
    1534,
    1535,
    1536,
    1537,
    1538,
    1539,
    1540,
    1541,
    1542,
    1545,
    1546,
    1547,
    1548,
    1549,
    1550,
    1551,
    1552,
    1555,
    1556,
    1557,
    1558,
    1559,
    1560,
    1561,
    1562,
    1565,
    1566,
    1567,
    1568,
    1569,
    1570,
    1571,
    1572,
    1575,
    1576,
    1577,
    1578,
    1579,
    1580,
    1581,
    1582,
    1583,
    1586,
    1587,
    1588,
    1589,
    1590,
    1591,
    1592,
    1593,
    1596,
    1597,
    1598,
    1599,
    1600,
    1601,
    1602,
    1603,
    1604,
    1607,
    1608,
    1609,
    1610,
    1611,
    1612,
    1613,
    1614,
    1615,
    1616,
    1619,
    1620,
    1621,
    1622,
    1623,
    1624,
    1625,
    1626,
    1629,
    1630,
    1631,
    1632,
    1633,
    1634,
    1635,
    1636,
    1639,
    1640,
    1641,
    1642,
    1643,
    1644,
    1645,
    1646,
    1649,
    1650,
    1651,
    1652,
    1653,
    1654,
    1655,
    1656,
    1657,
    1660,
    1661,
    1662,
    1663,
    1664,
    1665,
    1666,
    1667,
    1670,
    1671,
    1672,
    1673,
    1674,
    1675,
    1676,
    1677,
    1678,
    1681,
    1682,
    1683,
    1684,
    1685,
    1686,
    1687,
    1688,
    1689,
    1690,
    1693,
    1694,
    1695,
    1696,
    1697,
    1698,
    1699,
    1700,
    1701,
    1702,
    1705,
    1706,
    1707,
    1708,
    1709,
    1710,
    1711,
    1712,
    1713,
    1716,
    1717,
    1718,
    1719,
    1720,
    1721,
    1722,
    1723,
    1724,
    1727,
    1728,
    1729,
    1730,
    1731,
    1732,
    1733,
    1734,
    1735,
    1738,
    1739,
    1740,
    1741,
    1742,
    1743,
    1744,
    1745,
    1746,
    1747,
    1750,
    1751,
    1752,
    1753,
    1754,
    1755,
    1756,
    1757,
    1758,
    1761,
    1762,
    1763,
    1764,
    1765,
    1766,
    1767,
    1768,
    1769,
    1770,
    1773,
    1774,
    1775,
    1776,
    1777,
    1778,
    1779,
    1780,
    1781,
    1782,
    1783,
    1784,
    1785,
    1786,
    1787,
    1788,
    1789,
    1790,
    1793,
    1794,
    1795,
    1796,
    1797,
    1798,
    1799,
    1800,
    1803,
    1804,
    1805,
    1806,
    1807,
    1808,
    1809,
    1810,
    1811,
    1812,
    1815,
    1816,
    1817,
    1818,
    1819,
    1820,
    1821,
    1822,
    1823,
    1826,
    1827,
    1828,
    1829,
    1830,
    1831,
    1832,
    1833,
    1836,
    1837,
    1838,
    1839,
    1840,
    1841,
    1842,
    1843,
    1846,
    1847,
    1848,
    1849,
    1850,
    1851,
    1852,
    1853,
    1856,
    1857,
    1858,
    1859,
    1860,
    1861,
    1862,
    1863,
    1864,
    1867,
    1868,
    1869,
    1870,
    1871,
    1872,
    1873,
    1874,
    1877,
    1878,
    1879,
    1880,
    1881,
    1882,
    1883,
    1884,
    1885,
    1888,
    1889,
    1891,
    1892,
    1893,
    1894,
    1895,
    1896,
    1897,
    1898,
    1901,
    1902,
    1903,
    1904,
    1905,
    1906,
    1907,
    1908,
    1911,
    1912,
    1913,
    1914,
    1915,
    1916,
    1917,
    1918,
    1921,
    1922,
    1923,
    1924,
    1925,
    1926,
    1927,
    1928,
    1931,
    1932,
    1933,
    1934,
    1935,
    1936,
    1937,
    1938,
    1939,
    1942,
    1943,
    1944,
    1945,
    1946,
    1947,
    1948,
    1949,
    1952,
    1953,
    1954,
    1955,
    1956,
    1957,
    1958,
    1959,
    1960,
    1963,
    1964,
    1966,
    1967,
    1968,
    1969,
    1970,
    1971,
    1972,
    1973,
    1976,
    1977,
    1978,
    1979,
    1980,
    1981,
    1982,
    1983,
    1986,
    1987,
    1988,
    1989,
    1990,
    1991,
    1992,
    1993,
    1996,
    1997,
    1998,
    1999,
    2000,
    2001,
    2002,
    2003,
    2006,
    2007,
    2008,
    2009,
    2010,
    2011,
    2012,
    2013,
    2014,
    2017,
    2018,
    2019,
    2020,
    2021,
    2022,
    2023,
    2024,
    2027,
    2028,
    2029,
    2030,
    2031,
    2032,
    2033,
    2034,
    2035,
    2038,
    2039,
    2041,
    2042,
    2043,
    2044,
    2045,
    2046,
    2047,
    2048,
    2051,
    2052,
    2053,
    2054,
    2055,
    2056,
    2057,
    2058,
    2061,
    2062,
    2063,
    2064,
    2065,
    2066,
    2067,
    2068,
    2071,
    2072,
    2073,
    2074,
    2075,
    2076,
    2077,
    2078,
    2081,
    2082,
    2083,
    2084,
    2085,
    2086,
    2087,
    2088,
    2089,
    2092,
    2093,
    2094,
    2095,
    2096,
    2097,
    2098,
    2099,
    2102,
    2103,
    2104,
    2105,
    2106,
    2107,
    2108,
    2109,
    2110,
    2113,
    2114,
    2116,
    2117,
    2118,
    2119,
    2120,
    2121,
    2122,
    2123,
    2126,
    2127,
    2128,
    2129,
    2130,
    2131,
    2132,
    2133,
    2136,
    2137,
    2138,
    2139,
    2140,
    2141,
    2142,
    2143,
    2146,
    2147,
    2148,
    2149,
    2150,
    2151,
    2152,
    2153,
    2156,
    2157,
    2158,
    2159,
    2160,
    2161,
    2162,
    2163,
    2164,
    2167,
    2168,
    2169,
    2170,
    2171,
    2172,
    2173,
    2174,
    2177,
    2178,
    2179,
    2180,
    2181,
    2182,
    2183,
    2184,
    2185,
    2188,
    2189,
    2190,
    2191,
    2192,
    2193,
    2194,
    2195,
    2196,
    2199,
    2200,
    2201,
    2202,
    2203,
    2204,
    2205,
    2206,
    2209,
    2210,
    2211,
    2212,
    2213,
    2214,
    2215,
    2216,
    2219,
    2220,
    2221,
    2222,
    2223,
    2224,
    2225,
    2226,
    2229,
    2230,
    2231,
    2232,
    2233,
    2234,
    2235,
    2236,
    2237,
    2240,
    2241,
    2242,
    2243,
    2244,
    2245,
    2246,
    2247,
    2250,
    2251,
    2252,
    2253,
    2254,
    2255,
    2256,
    2257,
    2258,
    2261,
    2262,
    2263,
    2264,
    2265,
    2266,
    2267,
    2268,
    2269,
    2272,
    2273,
    2274,
    2275,
    2276,
    2277,
    2278,
    2279,
    2282,
    2283,
    2284,
    2285,
    2286,
    2287,
    2288,
    2289,
    2292,
    2293,
    2294,
    2295,
    2296,
    2297,
    2298,
    2299,
    2302,
    2303,
    2304,
    2305,
    2306,
    2307,
    2308,
    2309,
    2310,
    2313,
    2314,
    2315,
    2316,
    2317,
    2318,
    2319,
    2320,
    2323,
    2324,
    2325,
    2326,
    2327,
    2328,
    2329,
    2330,
    2331,
    2334,
    2335,
    2336,
    2337,
    2338,
    2339,
    2340,
    2341,
    2342,
    2343,
    2344,
    2345,
    2348,
    2349,
    2350,
    2351,
    2352,
    2353,
    2354,
    2355,
    2356,
    2357,
    2360,
    2361,
    2362,
    2363,
    2364,
    2365,
    2366,
    2367,
    2370,
    2371,
    2372,
    2373,
    2374,
    2375,
    2376,
    2377,
    2380,
    2381,
    2382,
    2383,
    2384,
    2385,
    2386,
    2387,
    2390,
    2391,
    2392,
    2393,
    2394,
    2395,
    2396,
    2397,
    2398,
    2401,
    2402,
    2403,
    2404,
    2405,
    2406,
    2407,
    2408,
    2411,
    2412,
    2413,
    2414,
    2415,
    2416,
    2417,
    2418,
    2419,
    2422,
    2423,
    2424,
    2425,
    2426,
    2427,
    2428,
    2429,
    2430,
    2431,
    2432,
    2433,
    2436,
    2437,
    2438,
    2439,
    2440,
    2441,
    2442,
    2443,
    2446,
    2447,
    2448,
    2449,
    2450,
    2451,
    2452,
    2453,
    2456,
    2457,
    2458,
    2459,
    2460,
    2461,
    2462,
    2463,
    2466,
    2467,
    2468,
    2469,
    2470,
    2471,
    2472,
    2473,
    2474,
    2477,
    2478,
    2479,
    2480,
    2481,
    2482,
    2483,
    2484,
    2487,
    2488,
    2489,
    2490,
    2491,
    2492,
    2493,
    2494,
    2495,
    2498,
    2499,
    2500,
    2501,
    2502,
    2503,
    2504,
    2505,
    2506,
    2507,
    2510,
    2511,
    2512,
    2513,
    2514,
    2515,
    2516,
    2517,
    2520,
    2521,
    2522,
    2523,
    2524,
    2525,
    2526,
    2527,
    2530,
    2531,
    2532,
    2533,
    2534,
    2535,
    2536,
    2537,
    2540,
    2541,
    2542,
    2543,
    2544,
    2545,
    2546,
    2547,
    2548,
    2551,
    2552,
    2553,
    2554,
    2555,
    2556,
    2557,
    2558,
    2561,
    2562,
    2563,
    2564,
    2565,
    2566,
    2567,
    2568,
    2569,
    2572,
    2573,
    2574,
    2575,
    2576,
    2577,
    2578,
    2579,
    2580,
    2581,
    2584,
    2585,
    2586,
    2587,
    2588,
    2589,
    2590,
    2591,
    2594,
    2595,
    2596,
    2597,
    2598,
    2599,
    2600,
    2601,
    2604,
    2605,
    2606,
    2607,
    2608,
    2609,
    2610,
    2611,
    2614,
    2615,
    2616,
    2617,
    2618,
    2619,
    2620,
    2621,
    2622,
    2625,
    2626,
    2627,
    2628,
    2629,
    2630,
    2631,
    2632,
    2635,
    2636,
    2637,
    2638,
    2639,
    2640,
    2641,
    2642,
    2643,
    2646,
    2647,
    2648,
    2649,
    2650,
    2651,
    2652,
    2653,
    2654,
    2655,
    2656,
    2657,
    2660,
    2661,
    2662,
    2663,
    2664,
    2665,
    2666,
    2667,
    2670,
    2671,
    2672,
    2673,
    2674,
    2675,
    2676,
    2677,
    2680,
    2681,
    2682,
    2683,
    2684,
    2685,
    2686,
    2687,
    2690,
    2691,
    2692,
    2693,
    2694,
    2695,
    2696,
    2697,
    2698,
    2701,
    2702,
    2703,
    2704,
    2705,
    2706,
    2707,
    2708,
    2711,
    2712,
    2713,
    2714,
    2715,
    2716,
    2717,
    2718,
    2719,
    2722,
    2723,
    2724,
    2725,
    2726,
    2727,
    2728,
    2729,
    2730,
    2731,
    2734,
    2735,
    2736,
    2737,
    2738,
    2739,
    2740,
    2741,
    2744,
    2745,
    2746,
    2747,
    2748,
    2749,
    2750,
    2751,
    2754,
    2755,
    2756,
    2757,
    2758,
    2759,
    2760,
    2761,
    2764,
    2765,
    2766,
    2767,
    2768,
    2769,
    2770,
    2771,
    2772,
    2775,
    2776,
    2777,
    2778,
    2779,
    2780,
    2781,
    2782,
    2785,
    2786,
    2787,
    2788,
    2789,
    2790,
    2791,
    2792,
    2793,
    2796,
    2797,
    2798,
    2799,
    2800,
    2801,
    2802,
    2803,
    2804,
    2805,
    2808,
    2809,
    2810,
    2811,
    2812,
    2813,
    2814,
    2815,
    2818,
    2819,
    2820,
    2821,
    2822,
    2823,
    2824,
    2825,
    2828,
    2829,
    2830,
    2831,
    2832,
    2833,
    2834,
    2835,
    2838,
    2839,
    2840,
    2841,
    2842,
    2843,
    2844,
    2845,
    2846,
    2849,
    2850,
    2851,
    2852,
    2853,
    2854,
    2855,
    2856,
    2859,
    2860,
    2861,
    2862,
    2863,
    2864,
    2865,
    2866,
    2867,
    2870,
    2871,
    2872,
    2873,
    2874,
    2875,
    2876,
    2877,
    2878,
    2879,
    2880,
    2881,
    2884,
    2885,
    2886,
    2887,
    2888,
    2889,
    2890,
    2891,
    2894,
    2895,
    2896,
    2897,
    2898,
    2899,
    2900,
    2901,
    2904,
    2905,
    2906,
    2907,
    2908,
    2909,
    2910,
    2911,
    2914,
    2915,
    2916,
    2917,
    2918,
    2919,
    2920,
    2921,
    2922,
    2925,
    2926,
    2927,
    2928,
    2929,
    2930,
    2931,
    2932,
    2935,
    2936,
    2937,
    2938,
    2939,
    2940,
    2941,
    2942,
    2943,
    2946,
    2947,
    2948,
    2949,
    2950,
    2951,
    2952,
    2953,
    2954,
    2955,
    2958,
    2959,
    2960,
    2961,
    2962,
    2963,
    2964,
    2965,
    2968,
    2969,
    2970,
    2971,
    2972,
    2973,
    2974,
    2975,
    2978,
    2979,
    2980,
    2981,
    2982,
    2983,
    2984,
    2985,
    2988,
    2989,
    2990,
    2991,
    2992,
    2993,
    2994,
    2995,
    2996,
    2999,
    3000,
    3001,
    3002,
    3003,
    3004,
    3005,
    3006,
    3009,
    3010,
    3011,
    3012,
    3013,
    3014,
    3015,
    3016,
    3017,
    3020,
    3021,
    3022,
    3023,
    3024,
    3025,
    3026,
    3027,
    3028,
    3029,
    3032,
    3033,
    3034,
    3035,
    3036,
    3037,
    3038,
    3039,
    3042,
    3043,
    3044,
    3045,
    3046,
    3047,
    3048,
    3049,
    3052,
    3053,
    3054,
    3055,
    3056,
    3057,
    3058,
    3059,
    3062,
    3063,
    3064,
    3065,
    3066,
    3067,
    3068,
    3069,
    3070,
    3073,
    3074,
    3075,
    3076,
    3077,
    3078,
    3079,
    3080,
    3083,
    3084,
    3085,
    3086,
    3087,
    3088,
    3089,
    3090,
    3091,
    3094,
    3095,
    3096,
    3097,
    3098,
    3099,
    3100,
    3101,
    3102,
    3103,
    3104,
    3105,
    3108,
    3109,
    3110,
    3111,
    3112,
    3113,
    3114,
    3115,
    3118,
    3119,
    3120,
    3121,
    3122,
    3123,
    3124,
    3125,
    3128,
    3129,
    3130,
    3131,
    3132,
    3133,
    3134,
    3135,
    3138,
    3139,
    3140,
    3141,
    3142,
    3143,
    3144,
    3145,
    3146,
    3149,
    3150,
    3151,
    3152,
    3153,
    3154,
    3155,
    3156,
    3159,
    3160,
    3161,
    3162,
    3163,
    3164,
    3165,
    3166,
    3167,
    3170,
    3171,
    3172,
    3173,
    3174,
    3175,
    3176,
    3177,
    3178,
    3179,
    3182,
    3183,
    3184,
    3185,
    3186,
    3187,
    3188,
    3189,
    3192,
    3193,
    3194,
    3195,
    3196,
    3197,
    3198,
    3199,
    3202,
    3203,
    3204,
    3205,
    3206,
    3207,
    3208,
    3209,
    3212,
    3213,
    3214,
    3215,
    3216,
    3217,
    3218,
    3219,
    3220,
    3223,
    3224,
    3225,
    3226,
    3227,
    3228,
    3229,
    3230,
    3233,
    3234,
    3235,
    3236,
    3237,
    3238,
    3239,
    3240,
    3241,
    3244,
    3245,
    3246,
    3247,
    3248,
    3249,
    3250,
    3251,
    3252,
    3253,
    3256,
    3257,
    3258,
    3259,
    3260,
    3261,
    3262,
    3263,
    3264,
    3265,
    3268,
    3269,
    3270,
    3271,
    3272,
    3273,
    3274,
    3275,
    3276,
    3279,
    3280,
    3281,
    3282,
    3283,
    3284,
    3285,
    3286,
    3287,
    3290,
    3291,
    3292,
    3293,
    3294,
    3295,
    3296,
    3297,
    3298,
    3301,
    3302,
    3303,
    3304,
    3305,
    3306,
    3307,
    3308,
    3309,
    3310,
    3313,
    3314,
    3315,
    3316,
    3317,
    3318,
    3319,
    3320,
    3321,
    3324,
    3325,
    3326,
    3327,
    3328,
    3329,
    3330,
    3331,
    3332,
    3333,
    3336,
    3337,
    3338,
    3339,
    3340,
    3341,
    3342,
    3343,
    3344,
    3345,
    3346,
    3347,
    3348,
    3349,
    3350,
    3351,
    3352,
    3353,
    3356,
    3357,
    3358,
    3359,
    3360,
    3361,
    3362,
    3363,
    3366,
    3367,
    3368,
    3369,
    3370,
    3371,
    3372,
    3373,
    3374,
    3375,
    3378,
    3379,
    3380,
    3381,
    3382,
    3383,
    3384,
    3385,
    3386,
    3389,
    3390,
    3391,
    3392,
    3393,
    3394,
    3395,
    3396,
    3399,
    3400,
    3401,
    3402,
    3403,
    3404,
    3405,
    3406,
    3409,
    3410,
    3411,
    3412,
    3413,
    3414,
    3415,
    3416,
    3419,
    3420,
    3421,
    3422,
    3423,
    3424,
    3425,
    3426,
    3427,
    3430,
    3431,
    3432,
    3433,
    3434,
    3435,
    3436,
    3437,
    3440,
    3441,
    3442,
    3443,
    3444,
    3445,
    3446,
    3447,
    3448,
    3451,
    3452,
    3454,
    3455,
    3456,
    3457,
    3458,
    3459,
    3460,
    3461,
    3464,
    3465,
    3466,
    3467,
    3468,
    3469,
    3470,
    3471,
    3474,
    3475,
    3476,
    3477,
    3478,
    3479,
    3480,
    3481,
    3484,
    3485,
    3486,
    3487,
    3488,
    3489,
    3490,
    3491,
    3494,
    3495,
    3496,
    3497,
    3498,
    3499,
    3500,
    3501,
    3502,
    3505,
    3506,
    3507,
    3508,
    3509,
    3510,
    3511,
    3512,
    3515,
    3516,
    3517,
    3518,
    3519,
    3520,
    3521,
    3522,
    3523,
    3526,
    3527,
    3529,
    3530,
    3531,
    3532,
    3533,
    3534,
    3535,
    3536,
    3539,
    3540,
    3541,
    3542,
    3543,
    3544,
    3545,
    3546,
    3549,
    3550,
    3551,
    3552,
    3553,
    3554,
    3555,
    3556,
    3559,
    3560,
    3561,
    3562,
    3563,
    3564,
    3565,
    3566,
    3569,
    3570,
    3571,
    3572,
    3573,
    3574,
    3575,
    3576,
    3577,
    3580,
    3581,
    3582,
    3583,
    3584,
    3585,
    3586,
    3587,
    3590,
    3591,
    3592,
    3593,
    3594,
    3595,
    3596,
    3597,
    3598,
    3601,
    3602,
    3604,
    3605,
    3606,
    3607,
    3608,
    3609,
    3610,
    3611,
    3614,
    3615,
    3616,
    3617,
    3618,
    3619,
    3620,
    3621,
    3624,
    3625,
    3626,
    3627,
    3628,
    3629,
    3630,
    3631,
    3634,
    3635,
    3636,
    3637,
    3638,
    3639,
    3640,
    3641,
    3644,
    3645,
    3646,
    3647,
    3648,
    3649,
    3650,
    3651,
    3652,
    3655,
    3656,
    3657,
    3658,
    3659,
    3660,
    3661,
    3662,
    3665,
    3666,
    3667,
    3668,
    3669,
    3670,
    3671,
    3672,
    3673,
    3676,
    3677,
    3679,
    3680,
    3681,
    3682,
    3683,
    3684,
    3685,
    3686,
    3689,
    3690,
    3691,
    3692,
    3693,
    3694,
    3695,
    3696,
    3699,
    3700,
    3701,
    3702,
    3703,
    3704,
    3705,
    3706,
    3709,
    3710,
    3711,
    3712,
    3713,
    3714,
    3715,
    3716,
    3719,
    3720,
    3721,
    3722,
    3723,
    3724,
    3725,
    3726,
    3727,
    3730,
    3731,
    3732,
    3733,
    3734,
    3735,
    3736,
    3737,
    3740,
    3741,
    3742,
    3743,
    3744,
    3745,
    3746,
    3747,
    3748,
    3751,
    3752,
    3753,
    3754,
    3755,
    3756,
    3757,
    3758,
    3759,
    3762,
    3763,
    3764,
    3765,
    3766,
    3767,
    3768,
    3769,
    3772,
    3773,
    3774,
    3775,
    3776,
    3777,
    3778,
    3779,
    3782,
    3783,
    3784,
    3785,
    3786,
    3787,
    3788,
    3789,
    3792,
    3793,
    3794,
    3795,
    3796,
    3797,
    3798,
    3799,
    3800,
    3803,
    3804,
    3805,
    3806,
    3807,
    3808,
    3809,
    3810,
    3813,
    3814,
    3815,
    3816,
    3817,
    3818,
    3819,
    3820,
    3821,
    3824,
    3825,
    3826,
    3827,
    3828,
    3829,
    3830,
    3831,
    3832,
    3835,
    3836,
    3837,
    3838,
    3839,
    3840,
    3841,
    3842,
    3845,
    3846,
    3847,
    3848,
    3849,
    3850,
    3851,
    3852,
    3855,
    3856,
    3857,
    3858,
    3859,
    3860,
    3861,
    3862,
    3865,
    3866,
    3867,
    3868,
    3869,
    3870,
    3871,
    3872,
    3873,
    3876,
    3877,
    3878,
    3879,
    3880,
    3881,
    3882,
    3883,
    3886,
    3887,
    3888,
    3889,
    3890,
    3891,
    3892,
    3893,
    3894,
    3897,
    3898,
    3899,
    3900,
    3901,
    3902,
    3903,
    3904,
    3905,
    3906,
    3907,
    3908,
    3911,
    3912,
    3913,
    3914,
    3915,
    3916,
    3917,
    3918,
    3919,
    3920,
    3923,
    3924,
    3925,
    3926,
    3927,
    3928,
    3929,
    3930,
    3933,
    3934,
    3935,
    3936,
    3937,
    3938,
    3939,
    3940,
    3943,
    3944,
    3945,
    3946,
    3947,
    3948,
    3949,
    3950,
    3953,
    3954,
    3955,
    3956,
    3957,
    3958,
    3959,
    3960,
    3961,
    3964,
    3965,
    3966,
    3967,
    3968,
    3969,
    3970,
    3971,
    3974,
    3975,
    3976,
    3977,
    3978,
    3979,
    3980,
    3981,
    3982,
    3985,
    3986,
    3987,
    3988,
    3989,
    3990,
    3991,
    3992,
    3993,
    3994,
    3995,
    3996,
    3999,
    4000,
    4001,
    4002,
    4003,
    4004,
    4005,
    4006,
    4009,
    4010,
    4011,
    4012,
    4013,
    4014,
    4015,
    4016,
    4019,
    4020,
    4021,
    4022,
    4023,
    4024,
    4025,
    4026,
    4029,
    4030,
    4031,
    4032,
    4033,
    4034,
    4035,
    4036,
    4037,
    4040,
    4041,
    4042,
    4043,
    4044,
    4045,
    4046,
    4047,
    4050,
    4051,
    4052,
    4053,
    4054,
    4055,
    4056,
    4057,
    4058,
    4061,
    4062,
    4063,
    4064,
    4065,
    4066,
    4067,
    4068,
    4069,
    4070,
    4073,
    4074,
    4075,
    4076,
    4077,
    4078,
    4079,
    4080,
    4083,
    4084,
    4085,
    4086,
    4087,
    4088,
    4089,
    4090,
    4093,
    4094,
    4095,
    4096,
    4097,
    4098,
    4099,
    4100,
    4103,
    4104,
    4105,
    4106,
    4107,
    4108,
    4109,
    4110,
    4111,
    4114,
    4115,
    4116,
    4117,
    4118,
    4119,
    4120,
    4121,
    4124,
    4125,
    4126,
    4127,
    4128,
    4129,
    4130,
    4131,
    4132,
    4135,
    4136,
    4137,
    4138,
    4139,
    4140,
    4141,
    4142,
    4143,
    4144,
    4147,
    4148,
    4149,
    4150,
    4151,
    4152,
    4153,
    4154,
    4157,
    4158,
    4159,
    4160,
    4161,
    4162,
    4163,
    4164,
    4167,
    4168,
    4169,
    4170,
    4171,
    4172,
    4173,
    4174,
    4177,
    4178,
    4179,
    4180,
    4181,
    4182,
    4183,
    4184,
    4185,
    4188,
    4189,
    4190,
    4191,
    4192,
    4193,
    4194,
    4195,
    4198,
    4199,
    4200,
    4201,
    4202,
    4203,
    4204,
    4205,
    4206,
    4209,
    4210,
    4211,
    4212,
    4213,
    4214,
    4215,
    4216,
    4217,
    4218,
    4219,
    4220,
    4223,
    4224,
    4225,
    4226,
    4227,
    4228,
    4229,
    4230,
    4233,
    4234,
    4235,
    4236,
    4237,
    4238,
    4239,
    4240,
    4243,
    4244,
    4245,
    4246,
    4247,
    4248,
    4249,
    4250,
    4253,
    4254,
    4255,
    4256,
    4257,
    4258,
    4259,
    4260,
    4261,
    4264,
    4265,
    4266,
    4267,
    4268,
    4269,
    4270,
    4271,
    4274,
    4275,
    4276,
    4277,
    4278,
    4279,
    4280,
    4281,
    4282,
    4285,
    4286,
    4287,
    4288,
    4289,
    4290,
    4291,
    4292,
    4293,
    4294,
    4297,
    4298,
    4299,
    4300,
    4301,
    4302,
    4303,
    4304,
    4307,
    4308,
    4309,
    4310,
    4311,
    4312,
    4313,
    4314,
    4317,
    4318,
    4319,
    4320,
    4321,
    4322,
    4323,
    4324,
    4327,
    4328,
    4329,
    4330,
    4331,
    4332,
    4333,
    4334,
    4335,
    4338,
    4339,
    4340,
    4341,
    4342,
    4343,
    4344,
    4345,
    4348,
    4349,
    4350,
    4351,
    4352,
    4353,
    4354,
    4355,
    4356,
    4359,
    4360,
    4361,
    4362,
    4363,
    4364,
    4365,
    4366,
    4367,
    4368,
    4371,
    4372,
    4373,
    4374,
    4375,
    4376,
    4377,
    4378,
    4381,
    4382,
    4383,
    4384,
    4385,
    4386,
    4387,
    4388,
    4391,
    4392,
    4393,
    4394,
    4395,
    4396,
    4397,
    4398,
    4401,
    4402,
    4403,
    4404,
    4405,
    4406,
    4407,
    4408,
    4409,
    4412,
    4413,
    4414,
    4415,
    4416,
    4417,
    4418,
    4419,
    4422,
    4423,
    4424,
    4425,
    4426,
    4427,
    4428,
    4429,
    4430,
    4433,
    4434,
    4435,
    4436,
    4437,
    4438,
    4439,
    4440,
    4441,
    4442,
    4443,
    4444,
    4447,
    4448,
    4449,
    4450,
    4451,
    4452,
    4453,
    4454,
    4457,
    4458,
    4459,
    4460,
    4461,
    4462,
    4463,
    4464,
    4467,
    4468,
    4469,
    4470,
    4471,
    4472,
    4473,
    4474,
    4477,
    4478,
    4479,
    4480,
    4481,
    4482,
    4483,
    4484,
    4485,
    4488,
    4489,
    4490,
    4491,
    4492,
    4493,
    4494,
    4495,
    4498,
    4499,
    4500,
    4501,
    4502,
    4503,
    4504,
    4505,
    4506,
    4509,
    4510,
    4511,
    4512,
    4513,
    4514,
    4515,
    4516,
    4517,
    4518,
    4521,
    4522,
    4523,
    4524,
    4525,
    4526,
    4527,
    4528,
    4531,
    4532,
    4533,
    4534,
    4535,
    4536,
    4537,
    4538,
    4541,
    4542,
    4543,
    4544,
    4545,
    4546,
    4547,
    4548,
    4551,
    4552,
    4553,
    4554,
    4555,
    4556,
    4557,
    4558,
    4559,
    4562,
    4563,
    4564,
    4565,
    4566,
    4567,
    4568,
    4569,
    4572,
    4573,
    4574,
    4575,
    4576,
    4577,
    4578,
    4579,
    4580,
    4583,
    4584,
    4585,
    4586,
    4587,
    4588,
    4589,
    4590,
    4591,
    4592,
    4595,
    4596,
    4597,
    4598,
    4599,
    4600,
    4601,
    4602,
    4605,
    4606,
    4607,
    4608,
    4609,
    4610,
    4611,
    4612,
    4615,
    4616,
    4617,
    4618,
    4619,
    4620,
    4621,
    4622,
    4625,
    4626,
    4627,
    4628,
    4629,
    4630,
    4631,
    4632,
    4633,
    4636,
    4637,
    4638,
    4639,
    4640,
    4641,
    4642,
    4643,
    4646,
    4647,
    4648,
    4649,
    4650,
    4651,
    4652,
    4653,
    4654,
    4657,
    4658,
    4659,
    4660,
    4661,
    4662,
    4663,
    4664,
    4665,
    4666,
    4667,
    4668,
    4671,
    4672,
    4673,
    4674,
    4675,
    4676,
    4677,
    4678,
    4681,
    4682,
    4683,
    4684,
    4685,
    4686,
    4687,
    4688,
    4691,
    4692,
    4693,
    4694,
    4695,
    4696,
    4697,
    4698,
    4701,
    4702,
    4703,
    4704,
    4705,
    4706,
    4707,
    4708,
    4709,
    4712,
    4713,
    4714,
    4715,
    4716,
    4717,
    4718,
    4719,
    4722,
    4723,
    4724,
    4725,
    4726,
    4727,
    4728,
    4729,
    4730,
    4733,
    4734,
    4735,
    4736,
    4737,
    4738,
    4739,
    4740,
    4741,
    4742,
    4745,
    4746,
    4747,
    4748,
    4749,
    4750,
    4751,
    4752,
    4755,
    4756,
    4757,
    4758,
    4759,
    4760,
    4761,
    4762,
    4765,
    4766,
    4767,
    4768,
    4769,
    4770,
    4771,
    4772,
    4775,
    4776,
    4777,
    4778,
    4779,
    4780,
    4781,
    4782,
    4783,
    4786,
    4787,
    4788,
    4789,
    4790,
    4791,
    4792,
    4793,
    4796,
    4797,
    4798,
    4799,
    4800,
    4801,
    4802,
    4803,
    4804,
    4807,
    4808,
    4809,
    4810,
    4811,
    4812,
    4813,
    4814,
    4815,
    4816,
    4819,
    4820,
    4821,
    4822,
    4823,
    4824,
    4825,
    4826,
    4827,
    4828,
    4831,
    4832,
    4833,
    4834,
    4835,
    4836,
    4837,
    4838,
    4839,
    4842,
    4843,
    4844,
    4845,
    4846,
    4847,
    4848,
    4849,
    4850,
    4853,
    4854,
    4855,
    4856,
    4857,
    4858,
    4859,
    4860,
    4861,
    4864,
    4865,
    4866,
    4867,
    4868,
    4869,
    4870,
    4871,
    4872,
    4873,
    4876,
    4877,
    4878,
    4879,
    4880,
    4881,
    4882,
    4883,
    4884,
    4887,
    4888,
    4889,
    4890,
    4891,
    4892,
    4893,
    4894,
    4895,
    4896,
    4899,
    4900,
    4901,
    4902,
    4903,
    4904,
    4905,
    4906,
    4907,
    4908,
    4909,
    4910,
    4911,
    4912,
    4913,
    4914,
    4915,
    4916,
    4919,
    4920,
    4921,
    4922,
    4923,
    4924,
    4925,
    4926,
    4929,
    4930,
    4931,
    4932,
    4933,
    4934,
    4935,
    4936,
    4937,
    4938,
    4941,
    4942,
    4943,
    4944,
    4945,
    4946,
    4947,
    4948,
    4949,
    4952,
    4953,
    4954,
    4955,
    4956,
    4957,
    4958,
    4959,
    4962,
    4963,
    4964,
    4965,
    4966,
    4967,
    4968,
    4969,
    4972,
    4973,
    4974,
    4975,
    4976,
    4977,
    4978,
    4979,
    4982,
    4983,
    4984,
    4985,
    4986,
    4987,
    4988,
    4989,
    4990,
    4993,
    4994,
    4995,
    4996,
    4997,
    4998,
    4999,
    5000,
    5003,
    5004,
    5005,
    5006,
    5007,
    5008,
    5009,
    5010,
    5011,
    5014,
    5015,
    5017,
    5018,
    5019,
    5020,
    5021,
    5022,
    5023,
    5024,
    5027,
    5028,
    5029,
    5030,
    5031,
    5032,
    5033,
    5034,
    5037,
    5038,
    5039,
    5040,
    5041,
    5042,
    5043,
    5044,
    5047,
    5048,
    5049,
    5050,
    5051,
    5052,
    5053,
    5054,
    5057,
    5058,
    5059,
    5060,
    5061,
    5062,
    5063,
    5064,
    5065,
    5068,
    5069,
    5070,
    5071,
    5072,
    5073,
    5074,
    5075,
    5078,
    5079,
    5080,
    5081,
    5082,
    5083,
    5084,
    5085,
    5086,
    5089,
    5090,
    5092,
    5093,
    5094,
    5095,
    5096,
    5097,
    5098,
    5099,
    5102,
    5103,
    5104,
    5105,
    5106,
    5107,
    5108,
    5109,
    5112,
    5113,
    5114,
    5115,
    5116,
    5117,
    5118,
    5119,
    5122,
    5123,
    5124,
    5125,
    5126,
    5127,
    5128,
    5129,
    5132,
    5133,
    5134,
    5135,
    5136,
    5137,
    5138,
    5139,
    5140,
    5143,
    5144,
    5145,
    5146,
    5147,
    5148,
    5149,
    5150,
    5153,
    5154,
    5155,
    5156,
    5157,
    5158,
    5159,
    5160,
    5161,
    5164,
    5165,
    5167,
    5168,
    5169,
    5170,
    5171,
    5172,
    5173,
    5174,
    5177,
    5178,
    5179,
    5180,
    5181,
    5182,
    5183,
    5184,
    5187,
    5188,
    5189,
    5190,
    5191,
    5192,
    5193,
    5194,
    5197,
    5198,
    5199,
    5200,
    5201,
    5202,
    5203,
    5204,
    5207,
    5208,
    5209,
    5210,
    5211,
    5212,
    5213,
    5214,
    5215,
    5218,
    5219,
    5220,
    5221,
    5222,
    5223,
    5224,
    5225,
    5228,
    5229,
    5230,
    5231,
    5232,
    5233,
    5234,
    5235,
    5236,
    5239,
    5240,
    5242,
    5243,
    5244,
    5245,
    5246,
    5247,
    5248,
    5249,
    5252,
    5253,
    5254,
    5255,
    5256,
    5257,
    5258,
    5259,
    5262,
    5263,
    5264,
    5265,
    5266,
    5267,
    5268,
    5269,
    5272,
    5273,
    5274,
    5275,
    5276,
    5277,
    5278,
    5279,
    5282,
    5283,
    5284,
    5285,
    5286,
    5287,
    5288,
    5289,
    5290,
    5293,
    5294,
    5295,
    5296,
    5297,
    5298,
    5299,
    5300,
    5303,
    5304,
    5305,
    5306,
    5307,
    5308,
    5309,
    5310,
    5311,
    5314,
    5315,
    5316,
    5317,
    5318,
    5319,
    5320,
    5321,
    5322,
    5325,
    5326,
    5327,
    5328,
    5329,
    5330,
    5331,
    5332,
    5335,
    5336,
    5337,
    5338,
    5339,
    5340,
    5341,
    5342,
    5345,
    5346,
    5347,
    5348,
    5349,
    5350,
    5351,
    5352,
    5355,
    5356,
    5357,
    5358,
    5359,
    5360,
    5361,
    5362,
    5363,
    5366,
    5367,
    5368,
    5369,
    5370,
    5371,
    5372,
    5373,
    5376,
    5377,
    5378,
    5379,
    5380,
    5381,
    5382,
    5383,
    5384,
    5387,
    5388,
    5389,
    5390,
    5391,
    5392,
    5393,
    5394,
    5395,
    5398,
    5399,
    5400,
    5401,
    5402,
    5403,
    5404,
    5405,
    5408,
    5409,
    5410,
    5411,
    5412,
    5413,
    5414,
    5415,
    5418,
    5419,
    5420,
    5421,
    5422,
    5423,
    5424,
    5425,
    5428,
    5429,
    5430,
    5431,
    5432,
    5433,
    5434,
    5435,
    5436,
    5439,
    5440,
    5441,
    5442,
    5443,
    5444,
    5445,
    5446,
    5449,
    5450,
    5451,
    5452,
    5453,
    5454,
    5455,
    5456,
    5457,
    5460,
    5461,
    5462,
    5463,
    5464,
    5465,
    5466,
    5467,
    5468,
    5469,
    5470,
    5471,
    5474,
    5475,
    5476,
    5477,
    5478,
    5479,
    5480,
    5481,
    5482,
    5483,
    5486,
    5487,
    5488,
    5489,
    5490,
    5491,
    5492,
    5493,
    5496,
    5497,
    5498,
    5499,
    5500,
    5501,
    5502,
    5503,
    5506,
    5507,
    5508,
    5509,
    5510,
    5511,
    5512,
    5513,
    5516,
    5517,
    5518,
    5519,
    5520,
    5521,
    5522,
    5523,
    5524,
    5527,
    5528,
    5529,
    5530,
    5531,
    5532,
    5533,
    5534,
    5537,
    5538,
    5539,
    5540,
    5541,
    5542,
    5543,
    5544,
    5545,
    5548,
    5549,
    5550,
    5551,
    5552,
    5553,
    5554,
    5555,
    5556,
    5557,
    5558,
    5559,
    5562,
    5563,
    5564,
    5565,
    5566,
    5567,
    5568,
    5569,
    5572,
    5573,
    5574,
    5575,
    5576,
    5577,
    5578,
    5579,
    5582,
    5583,
    5584,
    5585,
    5586,
    5587,
    5588,
    5589,
    5592,
    5593,
    5594,
    5595,
    5596,
    5597,
    5598,
    5599,
    5600,
    5603,
    5604,
    5605,
    5606,
    5607,
    5608,
    5609,
    5610,
    5613,
    5614,
    5615,
    5616,
    5617,
    5618,
    5619,
    5620,
    5621,
    5624,
    5625,
    5626,
    5627,
    5628,
    5629,
    5630,
    5631,
    5632,
    5633,
    5636,
    5637,
    5638,
    5639,
    5640,
    5641,
    5642,
    5643,
    5646,
    5647,
    5648,
    5649,
    5650,
    5651,
    5652,
    5653,
    5656,
    5657,
    5658,
    5659,
    5660,
    5661,
    5662,
    5663,
    5666,
    5667,
    5668,
    5669,
    5670,
    5671,
    5672,
    5673,
    5674,
    5677,
    5678,
    5679,
    5680,
    5681,
    5682,
    5683,
    5684,
    5687,
    5688,
    5689,
    5690,
    5691,
    5692,
    5693,
    5694,
    5695,
    5698,
    5699,
    5700,
    5701,
    5702,
    5703,
    5704,
    5705,
    5706,
    5707,
    5710,
    5711,
    5712,
    5713,
    5714,
    5715,
    5716,
    5717,
    5720,
    5721,
    5722,
    5723,
    5724,
    5725,
    5726,
    5727,
    5730,
    5731,
    5732,
    5733,
    5734,
    5735,
    5736,
    5737,
    5740,
    5741,
    5742,
    5743,
    5744,
    5745,
    5746,
    5747,
    5748,
    5751,
    5752,
    5753,
    5754,
    5755,
    5756,
    5757,
    5758,
    5761,
    5762,
    5763,
    5764,
    5765,
    5766,
    5767,
    5768,
    5769,
    5772,
    5773,
    5774,
    5775,
    5776,
    5777,
    5778,
    5779,
    5780,
    5781,
    5782,
    5783,
    5786,
    5787,
    5788,
    5789,
    5790,
    5791,
    5792,
    5793,
    5796,
    5797,
    5798,
    5799,
    5800,
    5801,
    5802,
    5803,
    5806,
    5807,
    5808,
    5809,
    5810,
    5811,
    5812,
    5813,
    5816,
    5817,
    5818,
    5819,
    5820,
    5821,
    5822,
    5823,
    5824,
    5827,
    5828,
    5829,
    5830,
    5831,
    5832,
    5833,
    5834,
    5837,
    5838,
    5839,
    5840,
    5841,
    5842,
    5843,
    5844,
    5845,
    5848,
    5849,
    5850,
    5851,
    5852,
    5853,
    5854,
    5855,
    5856,
    5857,
    5860,
    5861,
    5862,
    5863,
    5864,
    5865,
    5866,
    5867,
    5870,
    5871,
    5872,
    5873,
    5874,
    5875,
    5876,
    5877,
    5880,
    5881,
    5882,
    5883,
    5884,
    5885,
    5886,
    5887,
    5890,
    5891,
    5892,
    5893,
    5894,
    5895,
    5896,
    5897,
    5898,
    5901,
    5902,
    5903,
    5904,
    5905,
    5906,
    5907,
    5908,
    5911,
    5912,
    5913,
    5914,
    5915,
    5916,
    5917,
    5918,
    5919,
    5922,
    5923,
    5924,
    5925,
    5926,
    5927,
    5928,
    5929,
    5930,
    5931,
    5934,
    5935,
    5936,
    5937,
    5938,
    5939,
    5940,
    5941,
    5944,
    5945,
    5946,
    5947,
    5948,
    5949,
    5950,
    5951,
    5954,
    5955,
    5956,
    5957,
    5958,
    5959,
    5960,
    5961,
    5964,
    5965,
    5966,
    5967,
    5968,
    5969,
    5970,
    5971,
    5972,
    5975,
    5976,
    5977,
    5978,
    5979,
    5980,
    5981,
    5982,
    5985,
    5986,
    5987,
    5988,
    5989,
    5990,
    5991,
    5992,
    5993,
    5996,
    5997,
    5998,
    5999,
    6000,
    6001,
    6002,
    6003,
    6004,
    6005,
    6006,
    6007,
    6010,
    6011,
    6012,
    6013,
    6014,
    6015,
    6016,
    6017,
    6020,
    6021,
    6022,
    6023,
    6024,
    6025,
    6026,
    6027,
    6030,
    6031,
    6032,
    6033,
    6034,
    6035,
    6036,
    6037,
    6040,
    6041,
    6042,
    6043,
    6044,
    6045,
    6046,
    6047,
    6048,
    6051,
    6052,
    6053,
    6054,
    6055,
    6056,
    6057,
    6058,
    6061,
    6062,
    6063,
    6064,
    6065,
    6066,
    6067,
    6068,
    6069,
    6072,
    6073,
    6074,
    6075,
    6076,
    6077,
    6078,
    6079,
    6080,
    6081,
    6084,
    6085,
    6086,
    6087,
    6088,
    6089,
    6090,
    6091,
    6094,
    6095,
    6096,
    6097,
    6098,
    6099,
    6100,
    6101,
    6104,
    6105,
    6106,
    6107,
    6108,
    6109,
    6110,
    6111,
    6114,
    6115,
    6116,
    6117,
    6118,
    6119,
    6120,
    6121,
    6122,
    6125,
    6126,
    6127,
    6128,
    6129,
    6130,
    6131,
    6132,
    6135,
    6136,
    6137,
    6138,
    6139,
    6140,
    6141,
    6142,
    6143,
    6146,
    6147,
    6148,
    6149,
    6150,
    6151,
    6152,
    6153,
    6154,
    6155,
    6158,
    6159,
    6160,
    6161,
    6162,
    6163,
    6164,
    6165,
    6168,
    6169,
    6170,
    6171,
    6172,
    6173,
    6174,
    6175,
    6178,
    6179,
    6180,
    6181,
    6182,
    6183,
    6184,
    6185,
    6188,
    6189,
    6190,
    6191,
    6192,
    6193,
    6194,
    6195,
    6196,
    6199,
    6200,
    6201,
    6202,
    6203,
    6204,
    6205,
    6206,
    6209,
    6210,
    6211,
    6212,
    6213,
    6214,
    6215,
    6216,
    6217,
    6220,
    6221,
    6222,
    6223,
    6224,
    6225,
    6226,
    6227,
    6228,
    6229,
    6230,
    6231,
    6234,
    6235,
    6236,
    6237,
    6238,
    6239,
    6240,
    6241,
    6244,
    6245,
    6246,
    6247,
    6248,
    6249,
    6250,
    6251,
    6254,
    6255,
    6256,
    6257,
    6258,
    6259,
    6260,
    6261,
    6264,
    6265,
    6266,
    6267,
    6268,
    6269,
    6270,
    6271,
    6272,
    6275,
    6276,
    6277,
    6278,
    6279,
    6280,
    6281,
    6282,
    6285,
    6286,
    6287,
    6288,
    6289,
    6290,
    6291,
    6292,
    6293,
    6296,
    6297,
    6298,
    6299,
    6300,
    6301,
    6302,
    6303,
    6304,
    6305,
    6308,
    6309,
    6310,
    6311,
    6312,
    6313,
    6314,
    6315,
    6318,
    6319,
    6320,
    6321,
    6322,
    6323,
    6324,
    6325,
    6328,
    6329,
    6330,
    6331,
    6332,
    6333,
    6334,
    6335,
    6338,
    6339,
    6340,
    6341,
    6342,
    6343,
    6344,
    6345,
    6346,
    6349,
    6350,
    6351,
    6352,
    6353,
    6354,
    6355,
    6356,
    6359,
    6360,
    6361,
    6362,
    6363,
    6364,
    6365,
    6366,
    6367,
    6370,
    6371,
    6372,
    6373,
    6374,
    6375,
    6376,
    6377,
    6378,
    6379,
    6382,
    6383,
    6384,
    6385,
    6386,
    6387,
    6388,
    6389,
    6390,
    6391,
    6394,
    6395,
    6396,
    6397,
    6398,
    6399,
    6400,
    6401,
    6402,
    6405,
    6406,
    6407,
    6408,
    6409,
    6410,
    6411,
    6412,
    6413,
    6416,
    6417,
    6418,
    6419,
    6420,
    6421,
    6422,
    6423,
    6424,
    6427,
    6428,
    6429,
    6430,
    6431,
    6432,
    6433,
    6434,
    6435,
    6436,
    6439,
    6440,
    6441,
    6442,
    6443,
    6444,
    6445,
    6446,
    6447,
    6450,
    6451,
    6452,
    6453,
    6454,
    6455,
    6456,
    6457,
    6458,
    6459,
    6462,
    6463,
    6464,
    6465,
    6466,
    6467,
    6468,
    6469,
    6470,
    6471,
    6472,
    6473,
    6474,
    6475,
    6476,
    6477,
    6478,
    6481,
    6482,
    6483,
    6484,
    6485,
    6486,
    6487,
    6488,
    6491,
    6492,
    6493,
    6494,
    6495,
    6496,
    6497,
    6498,
    6499,
    6500,
    6501,
    6502,
    6503,
    6504,
    6505,
    6506,
    6507,
    6508,
    6509,
    6510,
    6513,
    6514,
    6515,
    6516,
    6517,
    6518,
    6519,
    6520,
    6523,
    6524,
    6525,
    6526,
    6527,
    6528,
    6529,
    6530,
    6533,
    6534,
    6535,
    6536,
    6537,
    6538,
    6539,
    6540,
    6543,
    6544,
    6545,
    6546,
    6547,
    6548,
    6549,
    6550,
    6551,
    6554,
    6555,
    6556,
    6557,
    6558,
    6559,
    6560,
    6561,
    6564,
    6565,
    6566,
    6567,
    6568,
    6569,
    6570,
    6571,
    6572,
    6575,
    6576,
    6577,
    6578,
    6579,
    6580,
    6581,
    6582,
    6583,
    6584,
    6587,
    6588,
    6589,
    6590,
    6591
  ],
  "heads": [[5351, 0, 0]],
  "attrs": {"mxnet_version": ["int", 10201]}
}
